model/l_pd_diamonds.pt (torch, 5260 bytes, 9 tensors)

fc1.weight f4 [18, 9]
0.17201701 0.21838841 -0.23204038 0.04135394 -0.11783688 0.11282608 -0.099589586 -0.13155405
-0.099042654 3.2395077 3.4304 3.7571294 3.6902096 3.3303814 3.8685 3.8416631
3.5884073 3.480557 0.12801722 0.21789661 0.27624008 0.09440103 0.032074213 -0.29952472
0.13792562 -0.040738225 -0.057614446 3.7313938 3.4197035 3.672473 3.3453398 3.4861124
3.8171995 3.2332234 3.6145737 3.788226 -0.14593542 -0.2911242 0.2611147 0.13727331
-0.3233453 -0.026240855 -0.09791915 -0.042772204 -0.26829737 -3.4989543 -3.210431 -3.5599666
3.4909396 -3.3520257 -3.410396 -3.2729259 -3.5432992 -3.4749665 3.8339312 3.5318441
3.4093144 3.5872808 3.6673148 3.4603186 3.7681036 3.5880537 3.4582329 -0.020089835
-0.15393643 -0.13153562 -0.2930847 -0.1208497 -0.31733987 0.27184263 -0.05453539 -0.0029469728
-3.3684776 -3.7678978 -3.685623 -3.8600771 -3.2315722 -3.3136673 -3.4974182 -3.2044349
-3.227784 0.09808561 -0.16187422 -0.046144128 -0.23510659 -0.28993905 -0.23669574 0.25340536
0.28207603 0.18754104 3.7755773 3.258346 3.6317382 3.8371382 3.3929873 3.672356
3.588242 3.3169906 3.605769 -3.8297527 -3.6432083 -3.3286204 -3.5351396 -3.7714863
-3.2844791 -3.8194108 -3.5329404 -3.5417442 3.6362078 3.6986997 3.227715 3.3470871
3.7942576 3.283082 3.6195414 3.6266003 3.6775973 3.713238 3.6959074 3.7318857
3.5450923 3.381072 3.7656732 3.272362 3.7211232 3.3109589 0.3032265 -0.13789284
0.1436244 -0.180831 -0.27928156 0.07844198 -0.17639169 0.17528048 -0.10875702 0.19145945
-0.022721887 -0.17822675 -0.05170071 0.028192997 -0.12689078 -0.0635328 -0.29205438 -0.10871145
3.383011 3.3435168 3.4010148 3.253153 3.826676 3.4626641 3.6229115 3.6975808
3.485782 0.13101014 -0.33322895 -0.31683797 -0.13399093 0.09732601 -0.15949559 0.17541978
0.24937484 -0.06050816
00000000: 3a25 303e 36a1 5f3e fe9b 6dbe c062 293d
00000010: 7654 f1bd 5c11 e73d a0f5 cbbd 1bb6 06be
00000020: e0d6 cabd 1854 4f40 ac8b 5b40 cf74 7040
00000030: 652c 6c40 f824 5540 8195 7740 cfdd 7540
00000040: 77a8 6540 72c1 5e40 f216 033e 4a20 5f3e
00000050: 576f 8d3e 5455 c13d 4060 033d 4e5b 99be
00000060: 603c 0d3e 20dd 26bd 20fd 6bbd 28cf 6e40
00000070: 6cdc 5a40 cc09 6b40 0c1a 5640 771c 5f40
00000080: ff4c 7440 22ed 4e40 2d55 6740 4b72 7240
00000090: 1870 15be 3b0e 95be d3b0 853e 6091 0c3e
000000a0: 848d a5be 10f7 d6bc d689 c8bd e831 2fbd
000000b0: 465e 89be deee 5fc0 b477 4dc0 7ed6 63c0
000000c0: 8e6b 5f40 9787 56c0 ee43 5ac0 9e77 51c0
000000d0: 6ac5 62c0 da65 5ec0 215f 7540 bc09 6240
000000e0: 3532 5a40 0296 6540 49b5 6a40 dc75 5d40
000000f0: 9c28 7140 aca2 6540 b053 5d40 7093 a4bc
00000100: 83a1 1dbe 46b1 06be 330f 96be 0c80 f7bd
00000110: 5f7a a2be f52e 8b3e 8060 5fbd 0022 41bb
00000120: 2395 57c0 3d25 71c0 3fe1 6bc0 810b 77c0
00000130: 14d2 4ec0 2013 54c0 b3d5 5fc0 7615 4dc0
00000140: 0394 4ec0 1ce1 c83d 5bc2 25be a001 3dbd
00000150: c8bf 70be e472 94be 5e60 72be 59be 813e
00000160: 456c 903e c20a 403e 0fa3 7140 be88 5040
00000170: 666e 6840 ac93 7540 b426 5940 e107 6b40
00000180: c2a5 6540 9349 5440 ebc4 6640 ab1a 75c0
00000190: 532a 69c0 1e08 55c0 ba3f 62c0 0860 71c0
000001a0: e834 52c0 3a71 74c0 b21b 62c0 f0ab 62c0
000001b0: a1b7 6840 7fb7 6c40 e292 4e40 ad36 5640
000001c0: 1ed5 7240 041e 5240 91a6 6740 381a 6840
000001d0: c15d 6b40 b1a5 6d40 bf89 6c40 37d7 6e40
000001e0: cbe2 6240 7c63 5840 ca00 7140 616e 5140
000001f0: e226 6e40 c0e6 5340 8140 9b3e c833 0dbe
00000200: 4612 133e c32b 39be fefd 8ebe 30a6 a03d
00000210: 06a0 34be ba7c 333e 00bc debd f20d 443e
00000220: 4023 babc 1381 36be 20c4 53bd 00f5 e63c
00000230: a8ef 01be 7c1d 82bd 2788 95be 1ca4 debd
00000240: 4183 5840 2efc 5540 3aaa 5940 a933 5040
00000250: 42e8 7440 4a9c 5d40 c8dd 6740 2aa5 6c40
00000260: 0d17 5f40 8627 063e fc9c aabe 9638 a2be
00000270: eb34 09be dc52 c73d d052 23be 3ea1 333e
00000280: 1e5c 7f3e 68d7 77bd

fc1.bias f4 [18]
0.17467234 3.5159886 -0.16271687 3.6143434 0.107467085 -3.4594734 3.566999 0.15999654
-3.4704096 -0.18273501 3.4665668 -3.8412426 3.8396287 3.5081663 0.022405118 0.23129573
3.3774874 0.07213715
00000000: 4edd 323e f505 6140 409f 26be 6751 6740
00000010: b417 dc3d 0368 5dc0 b649 6440 22d6 233e
00000020: 311b 5ec0 e31e 3bbe 3bdc 5d40 ebd6 75c0
00000030: 7abc 7540 cc85 6040 f08a b73c cad8 6c3e
00000040: c128 5840 a4bc 933d

fc2.weight f4 [9, 18]
-0.20134974 3.4485621 0.004265547 3.7225227 -0.044964314 3.4030817 3.77144 -0.103881925
3.6998668 0.17009969 3.5121067 3.362594 3.6004255 3.659199 -0.07857181 0.1929488
3.3171098 -0.15316868 0.07903014 -3.6146348 -0.08974525 -3.6276548 -0.043104365 -3.565
-3.5415149 0.069193855 -3.4494727 -0.084689856 -3.7193224 -3.4821005 -3.6344547 -3.5305698
-0.07296255 0.05334477 -3.5326579 -0.18021245 0.0033260584 -0.19217949 0.12053351 0.17534442
0.15199484 -0.12879692 0.073143706 0.20287724 -0.041246027 -0.23293784 0.037013903 -0.064487174
0.010311678 0.16069333 -0.010261938 0.18848445 -0.010002181 -0.11439318 0.053059295 3.7508183
-0.112244725 3.540921 0.046345428 3.5713325 3.6427195 0.079260364 3.4492462 -0.020777673
3.338613 3.622711 3.61415 3.759075 -0.23430374 -0.119094886 3.7112782 -0.07423358
-0.110441715 -0.059313595 0.024034068 -0.109607205 0.10685052 0.22034405 -0.120078504 0.19026504
-0.2142707 -0.19162852 0.1736025 -0.10124153 0.10025738 -0.2046709 -0.013458803 -0.19959573
-0.025734812 0.03880848 0.10190271 -3.616434 -0.05935426 -3.7592163 -0.12765558 -3.4633858
-3.707478 0.08674826 -3.3413699 0.034280643 -3.7487423 -3.461203 -3.5431936 -3.3810685
-0.18439434 -0.17513724 -3.6781662 -0.05499214 -0.09517191 -0.061150163 -0.012993038 -0.1660159
0.1883607 -0.072965294 -0.09972215 -0.0022064745 -0.21205983 -0.07608658 -0.11807993 -0.03952588
0.18117864 -0.17967795 -0.09288187 0.19225352 0.14775683 -0.061063394 0.07761629 3.6916127
0.1631365 3.399906 -0.1281046 3.7614374 3.4435344 0.03379716 3.3761826 0.0007778555
3.5556397 3.590258 3.757631 3.7159872 -0.15575632 -0.10455114 3.5169766 0.102477774
0.05232127 -0.14479667 0.21088265 -0.03099963 -0.06840128 0.14247076 -0.09319843 -0.17086917
-0.18551135 0.1473668 0.17949633 -0.09972066 -0.011320591 0.063134566 0.15527897 0.103778705
0.035132453 -0.049217686
00000000: a02e 4ebe 3eb5 5c40 00c6 8b3b d03d 6e40
00000010: 802c 38bd 17cc 5940 465f 7140 0cc0 d4bd
00000020: 9eca 6c40 9d2e 2e3e 5bc6 6040 bd34 5740
00000030: 5f6d 6640 5130 6a40 42ea a0bd 5f94 453e
00000040: 874b 5440 40d8 1cbe 8eda a13d 2d56 67c0
00000050: 5ccc b7bd 7f2b 68c0 348e 30bd f628 64c0
00000060: 2ea8 62c0 82b5 8d3d 29c4 5cc0 e071 adbd
00000070: 6109 6ec0 bcda 5ec0 e89a 68c0 dbf4 61c0
00000080: 646d 95bd 0c80 5a3d 1117 62c0 9d89 38be
00000090: 00fa 593b b3ca 44be 46da f63d 7d8d 333e
000000a0: 89a4 1b3e 57e3 03be 5ecc 953d 0dbf 4f3e
000000b0: 98f1 28bd 4287 6ebe e49b 173d da11 84bd
000000c0: 50f2 283c cb8c 243e b021 28bc 1102 413e
000000d0: 30e0 23bc f946 eabd b454 593d 680d 7040
000000e0: 90e0 e5bd 739e 6240 b4d4 3d3d b690 6440
000000f0: 5122 6940 4253 a23d 73c0 5c40 f035 aabc
00000100: d6ab 5540 7fda 6740 3c4e 6740 af94 7040
00000110: 52ed 6fbe 05e8 f3bd 9585 6d40 c607 98bd
00000120: 442f e2bd d0f2 72bd 18e3 c43c be79 e0bd
00000130: 72d4 da3d dfa1 613e b8eb f5bd d7d4 423e
00000140: c769 5bbe 443a 44be dbc4 313e b857 cfbd
00000150: be53 cd3d 4095 51be 5082 5cbc d362 4cbe
00000160: d0d1 d2bc a4f5 1e3d 5eb2 d03d a873 67c0
00000170: 741d 73bd 0097 70c0 25b8 02be 1da8 5dc0
00000180: 5247 6dc0 12a9 b13d 01d9 55c0 dc69 0c3d
00000190: 65eb 6fc0 5a84 5dc0 afc3 62c0 6d63 58c0
000001a0: dfd1 3cbe 2d57 33be 1367 6bc0 703f 61bd
000001b0: 7ee9 c2bd 9878 7abd c0e0 54bc 1200 2abe
000001c0: a1e1 403e d46e 95bd 203b ccbd 809a 10bb
000001d0: 3626 59be 48d3 9bbd e4d3 f1bd e4e5 21bd
000001e0: e586 393e 7ffd 37be da38 bebd 1bde 443e
000001f0: 914d 173e 9c1d 7abd 4af5 9e3d 6243 6c40
00000200: 410d 273e 0f98 5940 da2d 03be 64bb 7040
00000210: de62 5c40 e46e 0a3d 6013 5840 00e9 4b3a
00000220: 9a8f 6340 c9c6 6540 077d 7040 bcd2 6d40
00000230: 967e 1fbe e81e d6bd 2516 6140 dedf d13d
00000240: d44e 563d 9445 14be 9ff1 573e f0f2 fdbc
00000250: f815 8cbd dbe3 113e d2de bebd 54f8 2ebe
00000260: b0f6 3dbe 53e7 163e e3cd 373e 583a ccbd
00000270: 007a 39bc b24c 813d 7301 1f3e ee89 d43d
00000280: 0ce7 0f3d 7c98 49bd

fc2.bias f4 [9]
3.6710958 -3.668588 -0.23186213 3.3539393 0.2106372 -3.5734396 -0.1376347 3.6943104
0.14351963
00000000: 3cf3 6a40 25ca 6ac0 446d 6dbe f1a6 5640
00000010: 47b1 573e 3cb3 64c0 1cf0 0cbe 956f 6c40
00000020: cff6 123e

fc3.weight f4 [5, 9]
3.6394997 3.6448452 -0.31111866 3.5965412 -0.17069504 3.498453 0.05061075 3.7945268
-0.24439403 -0.21436417 -0.09300606 0.13867655 0.03871596 0.021962196 -0.009200722 -0.059791714
-0.19143283 0.06821069 -0.28272283 -0.18887612 -0.04540375 0.04862067 0.15250513 -0.2805936
0.23462823 0.11396137 0.06461489 -3.4298682 -3.2183025 0.23747358 -3.5532267 -0.06190774
-3.470763 -0.2363445 -3.3497329 0.2857723 -0.03484726 -0.25497723 0.05375269 0.0022600591
-0.11416988 -0.20929894 -0.17320117 0.06928694 0.2681758
00000000: 90ed 6840 2545 6940 f24a 9fbe bb2d 6640
00000010: aeca 2ebe a7e6 5f40 384d 4f3d 87d9 7240
00000020: 6e42 7abe 4882 5bbe f679 bebd 3a01 0e3e
00000030: a094 1e3d 10ea b33c a0be 16bc 28e8 74bd
00000040: f806 44be 0cb2 8b3d 0cc1 90be be68 41be
00000050: 48f9 39bd 7826 473d 4e2a 1c3e f7a9 8fbe
00000060: 6242 703e 9464 e93d d054 843d f682 5bc0
00000070: abf8 4dc0 462c 733e 1168 63c0 f892 7dbd
00000080: fb20 5ec0 4b04 72be 0662 56c0 bf50 923e
00000090: 00bc 0ebd 608c 82be c82b 5c3d 801d 143b
000000a0: e6d1 e9bd 7652 56be a65b 31be 50e6 8d3d
000000b0: 574e 893e

fc3.bias f4 [5]
3.4828405 0.3286024 0.092938095 -3.4312325 -0.29169807
00000000: dce6 5e40 933e a83e 5456 be3d 5099 5bc0
00000010: 7359 95be

fc4.weight f4 [3, 5]
-3.85831 0.34403104 -0.39788318 -3.5523682 0.06403744 -3.7429798 0.28963578 -0.23887455
-3.2555568 0.4100445 -3.5531135 0.12642843 -0.11477777 -3.5169837 0.31121397
00000000: 8dee 76c0 d624 b03e 58b7 cbbe 005a 63c0
00000010: 1026 833d fb8c 6fc0 244b 943e 889b 74be
00000020: 0b5b 50c0 5af1 d13e 3666 63c0 7476 013e
00000030: 9c10 ebbd 4316 61c0 7057 9f3e

fc4.bias f4 [3]
-3.371659 -3.4832742 -3.346245
00000000: 43c9 57c0 f7ed 5ec0 e128 56c0

out.weight f4 [1, 3]
3.1933734 3.1034486 3.4838693
00000000: 3b60 4c40 e79e 4640 b7f7 5e40
