model/l_pd_BostonHousing.pt (torch, 6020 bytes, 7 tensors)

fc1.weight f4 [20, 13]
00000000: 563a 58be 1cd2 353e 0c4d 2ebd f0e8 f43d
00000010: 00cc d4bc 28ba 31be 1682 29be 606d 60bc
00000020: 3c48 51bd 280b da3d e061 06be 3bae 06be
00000030: 0293 663e 6d5f 803e 0402 2fbe 5bb0 4fbe
00000040: 5217 03be 3c09 ffbd c225 643d f65f 97bd
00000050: 64d1 24be 4f8d 32ba 9fbd 03be a112 8c3e
00000060: e720 393e a10f a33d 9ef8 d7bd 9e84 4f3e
00000070: 3488 8dbd 3586 41be e0df 55be 5eb2 79be
00000080: c02a a73b 2823 233e 9371 61be 26de 9bbd
00000090: fea2 61be 14ec ccbd 5c12 9dbd eb8a 66be
000000a0: ffdd 2a3c 6ffd 3d3d eceb 7bbe 235b 45bd
000000b0: 8a39 6b3e 288d 453d 14d1 4dbe ba08 323e
000000c0: c308 863e 9fe8 35be 0c91 edbd e913 b6bd
000000d0: d6a5 a8bc 555d dfbd 3797 033d 22c2 fabd
000000e0: ac68 90bd 8950 583e 9d6a 8f3d 5163 3ebe
000000f0: 7cd6 853e 0ca0 b7bd be06 3f3e 5dbe 853e
00000100: 2a6b 573d dd40 f0bd 707f f73c 049b 8b3e
00000110: 4360 83be 2835 81bd 3414 4abe 1a0d 5fbe
00000120: d1dc 8cbe 55f7 84be 2630 f9bd d659 733d
00000130: d53a f33d 2353 12be 4581 f13d ce74 eb3d
00000140: c49b 863e 5937 71be 9484 5a3e 0adf 043e
00000150: 6aa4 2dbe 8c65 343e 3821 85be 818f 88be
00000160: 9cc2 37be 7e7d 5a3e bd29 7fbe 50e9 b3bd
00000170: 25ae 51bd 7ce9 2bbe f8f7 27be 950f 19be
00000180: 1a9f 5f3e d7c8 313e b793 0abd cdb3 36be
00000190: d84a 5cbe 17e6 0a3e 99a3 4a3c 11ab 51be
000001a0: 6737 73be 18c6 f6bb f2dd b13c e497 68be
000001b0: 2d13 e83d a05a 3e3e c8bb b9bd 4680 693e
000001c0: 37f6 733e b2d5 4d3e 5dc6 23be 58a9 1b3e
000001d0: 42f6 7ebe 0229 69be 9206 74be f9ae 5bbd
000001e0: 20de 413e 3c7b 08be 5efe f2bd f025 1c3c
000001f0: 6090 63be 6e76 04be 6131 2e3d 8361 16bd
00000200: d277 823e 1d31 003e d657 423e 3659 7ebe
00000210: 0361 8d3e 7f6b 34bd 1ada 6d3e c67c 79be
00000220: eb91 8cbd f24e 153e 7740 603e c6a5 c53d
00000230: 5b3c e8bd e508 45bc eda2 32bd 1412 debd
00000240: a810 d2bd 9265 4e3e 983a 483e c0d7 aebb
00000250: b87a fa3d 8ae7 aebd e092 3a3d e825 e8bd
00000260: c861 0c3d 9ad0 aebd 468c 03be 3c80 8abe
00000270: 7f55 2bbe 5097 633d 7b3e 29be 3837 0c3d
00000280: 8857 6e3d f6ab 87be 9867 fa3d 2464 80be
00000290: b098 913d 0954 13be 80c1 25be 26df 3c3e
000002a0: ad43 12be 898d 3cbe ee5d 1f3e cb76 51be
000002b0: fd67 233d a939 153e e2c2 eebc 43bb 7e3e
000002c0: f431 523a eeee 86bd f313 183e 9b33 713e
000002d0: b152 ea3d dbee e7bd 3eb3 89be dd96 3e3e
000002e0: 5740 883e 9ce8 1ebe 770a 80be e47c 19be
000002f0: f424 d83d acfd 973d cd2d 39bd 6f34 103d
00000300: c010 61be 9566 a7bd 6dd2 7e3e 25b4 1abc
00000310: 1af1 67be 073e 0c3e ae8a 313e c37e 80bd
00000320: 8320 4b3d 48f9 863e f85d 37be 7305 263c
00000330: cc6c c63d 39b8 14be 133a 7c3e 5cb0 ec3d
00000340: 025a 79be a58c 4a3e 4534 74be f619 803e
00000350: 5dc7 64bd 8e0b 4f3c bb45 0c3e 11d5 573e
00000360: 3590 003e 8bba 18bd ad59 61bc 484a 993c
00000370: 185c debd a7ee 21bc c32b 8d3e e685 483e
00000380: d3f3 013e 0af2 99bd ac8d 983d e5f9 e43b
00000390: a686 e4bc fe2a 593e 5f9a 68be 07af 343e
000003a0: 1c55 01be 1296 33be 4215 ce3d 4324 3fbe
000003b0: 8a76 7abc 010a 663e e35e 1fbe e704 e63d
000003c0: cf2b 023e 3a2f 3d3e adb7 85bd aa6c 183e
000003d0: de82 bbbc 19aa adbd bab8 633e 13e9 193e
000003e0: 5c05 913c 88f8 403e 66b4 cdbd 3635 673d
000003f0: f3ad afbc e3d8 3ebe 20ef 3bbe a2cc 85be
-0.21116003 0.17755932 -0.042553946 0.11958492 -0.025976181 -0.17356169 -0.1655353 -0.013697952
-0.05109428 0.10646659 -0.13123274 -0.13152401 0.22517017 0.25072804 -0.17090613 -0.20282118
-0.12801865 -0.12452933 0.05570007 -0.0739135 -0.16095501 -0.0006811218 -0.12865303 0.27357963
0.18078957 0.07961965 -0.10545467 0.20265433 -0.06910744 -0.18898852 -0.20886183 -0.24384448
0.0051015317 0.1593138 -0.22015981 -0.07610731 -0.22034833 -0.10005966 -0.076695174 -0.2251393
0.010428905 0.04638427 -0.24601716 -0.048182618 0.22971168 0.04823032 -0.20099288 0.17386141
0.2617856 -0.17764519 -0.11599931 -0.08890516 -0.02058689 -0.109064735 0.03212663 -0.12244059
-0.070512146 0.21124472 0.07002757 -0.18592574 0.261402 -0.089660734 0.18654916 0.26121798
0.052592434 -0.11731122 0.030212134 0.27266705 -0.2565938 -0.06308967 -0.1973427 -0.21782342
-0.2751222 -0.2596995 -0.12167387 0.059411846 0.11876456 -0.14289527 0.11792234 0.11496888
0.26290715 -0.2355627 0.21339637 0.12975708 -0.1695725 0.17616862 -0.26001906 -0.26671985
-0.17945331 0.21336934 -0.24918266 -0.08784735 -0.051191468 -0.16788286 -0.16403186 -0.1494735
0.21838036 0.1736177 -0.033832278 -0.17842026 -0.21512926 0.13564335 0.012368106 -0.20475413
-0.23751603 -0.007530939 0.021712277 -0.22714192 0.113317825 0.18589258 -0.090690196 0.22802839
0.23824392 0.2010105 -0.15993638 0.15201318 -0.24898627 -0.2276955 -0.23830631 -0.053633664
0.1893239 -0.1332826 -0.11864923 0.009530529 -0.22223043 -0.12935802 0.04252756 -0.03671409
0.2548204 0.12518735 0.18978819 -0.24838719 0.27613077 -0.04404783 0.2322773 -0.24364004
-0.06863769 0.14580896 0.21899591 0.096507594 -0.11339637 -0.012026046 -0.04361241 -0.10843292
-0.10257083 0.20155933 0.19553602 -0.005335778 0.12230438 -0.08540256 0.045550227 -0.11335355
0.03427294 -0.08535881 -0.12846479 -0.2705096 -0.16731833 0.055564225 -0.1652774 0.03423235
0.058188945 -0.26498383 0.1222679 -0.250764 0.07109201 -0.14387526 -0.16187096 0.184445
-0.14283629 -0.18413366 0.15563175 -0.20455472 0.039894093 0.14572777 -0.029145662 0.24876122
0.0008018308 -0.06588541 0.1485136 0.23554842 0.114415534 -0.11324855 -0.26894563 0.18612237
0.26611587 -0.15518421 -0.25007984 -0.14989048 0.10553923 0.07421431 -0.045209695 0.035206255
-0.21979046 -0.08173863 0.24884959 -0.009442364 -0.22650567 0.13695537 0.17338058 -0.06274178
0.049591552 0.26362062 -0.1790694 0.010133135 0.0968872 -0.145234 0.24631529 0.115570754
-0.24350742 0.19780214 -0.23848064 0.25019807 -0.05585419 0.012637032 0.13698475 0.21077372
0.1255501 -0.037287276 -0.0137542905 0.018712178 -0.10857409 -0.009883559 0.2757245 0.19582328
0.12690668 -0.075168684 0.07448897 0.0069877976 -0.027896237 0.21207806 -0.22715138 0.17644893
-0.12630123 -0.17537716 0.10062648 -0.18666176 -0.015287051 0.22464754 -0.1556354 0.11231404
0.12712024 0.18475047 -0.06529174 0.14885202 -0.02288955 -0.08479709 0.22238436 0.15030317
0.01770275 0.18844807 -0.10044174 0.05644723 -0.02144525 -0.18637423 -0.18352938 -0.26132685

fc1.bias f4 [20]
00000000: 7ebd 1dbe b6f8 e43d 3da0 58be 946b 693e
00000010: df32 1dbe 12c6 913b 1d7a 2a3e dd69 e43b
00000020: 935a 1a3d 3311 4c3e c5f4 973d 3afc cabd
00000030: 67da 32be 6c68 473e 9d26 ab3d ef58 b23d
00000040: bbc0 25be cfed 673d c331 16be ed6f 0c3e
-0.15404317 0.1118025 -0.21154876 0.22794944 -0.15351437 0.0044486606 0.16648145 0.0069706277
0.037684035 0.19928436 0.07419733 -0.0991139 -0.17466126 0.19473428 0.08356974 0.08708369
-0.16186802 0.056623276 -0.1466742 0.13714571

fc2.weight f4 [13, 20]
00000000: 7692 2ebe 8fbb cfbd 51aa d5bd a8b2 3d3e
00000010: dd32 ea3d b011 1ebc 6a21 b8bd c3a7 7cbb
00000020: cca5 53be 508a 00bd b51b 4f3e 48ef 80bc
00000030: d83a b73c 98c9 0e3c b06f c73c f6f0 5bbe
00000040: 30bd 4dbd 99c4 943d 43b8 d2bd 291b 25be
00000050: ba9c 253e e6a8 093e 7f72 5ebe e0ef 0d3e
00000060: e91c b8bc 0513 30be 09d5 bfbd 631b be3d
00000070: ae1c 7f3c 9501 60be ec7c 55be d785 00be
00000080: d88a db3d 83f7 973d 13d5 0abd b99c a7bd
00000090: b830 323d 5286 543e 7931 0ebe f9f8 4cbe
000000a0: c716 2abe f42d 2e3e f41a 44be 13b3 413e
000000b0: ad07 c2bd 8816 e63d 3159 973c 2616 d1bd
000000c0: 3ba4 fdbc 0288 36be 4a4a 893d c648 5cbe
000000d0: d947 5abe fd64 d23d 877d 13be ca07 333e
000000e0: 0c55 94bb e3f6 2ebe 070c 96bd 9dc4 67bc
000000f0: 3688 1dbe 48a0 23be 20b2 e83c 3b2b 413d
00000100: 89b2 47bd f1ef bdbd 58b3 b63d e7c5 8d3d
00000110: 21da 993d c2d3 813d 1eae 25bb 60d9 8f3d
00000120: 6daf e9bd a91f 4b3e 645e 4dbe a573 263e
00000130: b736 11be 500b 48be 5f99 96bd b64e fc3c
00000140: ac2f a0bd 3cc0 2c3e 389c 04be b4eb 9abd
00000150: 107a 3d3d c22f 61be 1346 41be c0e6 5cbe
00000160: 40f6 0dbe 4879 38be 86cf 9b3d 78eb a63d
00000170: 91ee 5abe 7eb5 47bd 581a 043e 1e75 b7bd
00000180: 1a2d 25be 4da7 1e3e 70d3 5a3e bf56 d13d
00000190: a0be 243e b3e9 633d 5aad 1cbe 330e 62be
000001a0: 3bc2 a5bd 8624 483e 2dc2 5bbe ca70 0f3e
000001b0: f040 b5bc d3b0 37be f406 0c3c e8df 37be
000001c0: 7bd2 50be 001b 9a3d 3073 e23d 99eb 683b
000001d0: 0b6c 55be f8ab e5bc 94d3 0d3e ed32 913d
000001e0: 4042 133e 59da 993d bc47 7fbd b503 2e3e
000001f0: c679 173e 21f0 d53d 74f0 1b3e 3c19 ec3c
00000200: 423f 273e 60b5 453c 1f25 543d a889 20be
00000210: 11c2 51be 65fc 563e d8a4 59be 8891 633e
00000220: 23cb 493e a08b e73d cf22 073e 87eb 84bc
00000230: 577f 25be fefe 06be e4e9 b23d 73e0 173d
00000240: dd9d 19be 3cd7 35be 545a 25be a616 01bd
00000250: dc3a a13d b521 04bd 6f67 5c3e 08c5 323e
00000260: ff61 29be b11d 3c3e 6b0b 7abd 890e cc3d
00000270: 033d ffbd ef91 0dbe 8e4c 3a3e a03b edbd
00000280: 97c7 15be 44db ed3d af02 5abe 0d67 123b
00000290: 35ef aebd e489 fd3d d2d1 da3d 6c2c 2bbe
000002a0: 9060 f73d 031f 4cbe 9c64 5bbe 89b2 33be
000002b0: 88cd 48bd 537d e6bd ccb4 2f3e 3e53 383c
000002c0: 01ed 233e 82b7 63bd cd15 1e3e 3612 b3bc
000002d0: 06c0 00be b80c 9d3c 847c 37be 0e50 d8bd
000002e0: fe0e 093e 2046 1cbe fb7c 29be cbc3 dcbd
000002f0: 4fbe 10bb 5ea0 c0bd 7bfd 1b3e 7270 32be
00000300: b991 edbd ef9f 52be 4033 ca3d 0e1a d13d
00000310: 6cd4 b73d 3c07 16be 8bf4 e5bd a886 b4bc
00000320: d81f dbbd ebf9 6abc c449 0abd e85e 45be
00000330: c74f 77bd 46c1 463e 5b79 07be 32ba 29be
00000340: 4e49 e8bd dadc b3bd b343 573e 4bb0 2cbe
00000350: f09d 2b3d ed17 883d a928 3b3e c16b 42be
00000360: af3a 893d e916 3abe 695d 6cbd efa4 3c3e
00000370: a6db 4f3e 9e76 4fbe bbeb 5dbe 0df6 53bd
00000380: 4eb3 55bd 5cc4 b33d 3ce3 99bd 2a47 393d
00000390: 3225 c8bd 279e 06be 48dc 4ebe 8053 b2bc
000003a0: 2042 a43d cdff c33d 6c30 343e 5732 c73d
000003b0: 16a2 c63d bef2 91bd a68b 8cbd 5540 1bbe
000003c0: e41c 6bbd f7ab 01be 74a0 413e c3a3 f43d
000003d0: 801a d73c 0861 b53d fe30 2c3e 5a5d 4d3e
000003e0: 6023 df3d f643 173e c00a ae3d 0cbd b33d
000003f0: 500e 56be c956 ad3d 2382 56bd f633 52be
-0.17048058 -0.10143196 -0.10432876 0.18525183 0.11435483 -0.009647772 -0.08990748 -0.0038552142
-0.20668715 -0.031381905 0.20225413 -0.015739098 0.022366926 0.008715056 0.024345249 -0.21478638
-0.05022925 0.072640605 -0.102890514 -0.16123642 0.16173068 0.13443336 -0.21723364 0.13861036
-0.022474723 -0.17194755 -0.09366805 0.09282567 0.015570803 -0.21875603 -0.20848435 -0.12551056
0.10719842 0.07420256 -0.03389461 -0.08184189 0.043503493 0.20754364 -0.1388606 -0.2001685
-0.16610251 0.17009717 -0.19150907 0.18915968 -0.0947412 0.11234766 0.018475147 -0.102093026
-0.0309621 -0.1782532 0.06703623 -0.21512136 -0.2131647 0.10273168 -0.14403354 0.1748344
-0.00452674 -0.17086367 -0.07326513 -0.014145997 -0.15383992 -0.15979111 0.02840525 0.04716037
-0.04875425 -0.09274281 0.08920926 0.069225125 0.07512308 0.06339218 -0.0025280784 0.07023883
-0.11410413 0.19836296 -0.20055538 0.16255052 -0.14181028 -0.19535565 -0.07353472 0.030799251
-0.07821593 0.16870207 -0.12950218 -0.07564488 0.046258986 -0.21990874 -0.18874387 -0.21572399
-0.13863468 -0.18015015 0.07607941 0.08150381 -0.21380068 -0.04875707 0.12900674 -0.08957885
-0.16130486 0.15493508 0.2136972 0.10221624 0.16088343 0.055642795 -0.15300503 -0.22075729
-0.08093687 0.19545183 -0.21460791 0.1400787 -0.022125691 -0.17938547 0.00854658 -0.17956507
-0.20392792 0.07524681 0.110571265 0.0035540818 -0.20841996 -0.028036103 0.13850242 0.070897914
0.14380741 0.0751235 -0.06232427 0.16993602 0.14792547 0.104461916 0.15228444 0.028820626
0.16332725 0.012067169 0.051793214 -0.15677512 -0.20484187 0.20994718 -0.21254289 0.22223485
0.19706397 0.11305928 0.13196872 -0.01622559 -0.16161858 -0.1318321 0.08736017 0.037079286
-0.15001626 -0.17757887 -0.16147739 -0.03151574 0.07872555 -0.032258708 0.21523832 0.17457974
-0.16541289 0.18370701 -0.061046045 0.0996371 -0.12462809 -0.138252 0.18193266 -0.11583638
-0.14626919 0.11614087 -0.21290086 0.0022339255 -0.08541719 0.12379816 0.10684551 -0.16716164
0.12078965 -0.19933705 -0.21425098 -0.17548575 -0.049024135 -0.112543724 0.17158812 0.011250315
0.16008379 -0.05559493 0.15438004 -0.02185927 -0.12573251 0.019171104 -0.17918593 -0.10562144
0.13384625 -0.15261126 -0.16551583 -0.10779532 -0.002208609 -0.094055876 0.15233414 -0.17425707
-0.1160006 -0.20568822 0.098730564 0.10210048 0.08976063 -0.14651197 -0.112282835 -0.022036865
-0.10699433 -0.014341812 -0.033761755 -0.19274485 -0.060378816 0.19409665 -0.13229887 -0.16574934
-0.11342107 -0.087823585 0.21021919 -0.16864125 0.041898668 0.066451885 0.1827723 -0.18986417
0.06700646 -0.18172802 -0.05770627 0.18422292 0.20298633 -0.20260093 -0.21671955 -0.051748324
-0.05217295 0.08777687 -0.07514045 0.045233883 -0.097727194 -0.13146268 -0.20201218 -0.021768332
0.08020425 0.095702745 0.17596596 0.097263984 0.09698884 -0.071263775 -0.06862573 -0.1516126
-0.0574006 -0.12663256 0.18908864 0.119452976 0.026257753 0.08856398 0.16815564 0.20055142
0.10895419 0.14772019 0.08498144 0.08776292 -0.20903897 0.084638186 -0.0523702 -0.20527634

fc2.bias f4 [13]
00000000: 9d0e 533d 6417 453e 6fbe c6bd ee73 b13d
00000010: 715e 063e 464b 42be 4aa8 22be d1cd 0b3e
00000020: b5a2 82bd 1019 adbd c115 353e 69e1 db3d
00000030: 5dbb 3bbc
0.05152761 0.19247204 -0.09704291 0.0866469 0.13121964 -0.18974027 -0.1588451 0.13652731
-0.0637869 -0.08452046 0.1768408 0.10736353 -0.011458245

fc3.weight f4 [13, 13]
00000000: 2165 693d 03d2 74be 20ff 41be b686 8a3e
00000010: eae7 ed3b 0d73 7fbe c5fe 28bd 38c3 da3d
00000020: 27a7 6d3e 28a1 3f3d 656c c0bc 1b55 093e
00000030: b3dc 87be 7c26 4c3e b00f 1d3d 183f 75be
00000040: 200e 253c af6b 89be 8024 9ebd 9005 0dbe
00000050: 28e4 453e 2336 6ebe ccbb 21bd dc6e 473e
00000060: fc15 71bd d898 9ebd 93ae 04be fe57 0d3e
00000070: e63b 43be 4024 8cbb 0496 fd3d 24a8 27bd
00000080: b667 20be 301b 9cbc e9a3 893e 68c7 e03d
00000090: f479 07be 0014 713c ab7d 863e 7a28 05be
000000a0: 4d1e c4bc ec8b 82bd 7241 3fbe e8f2 68be
000000b0: 69d4 59be dead 72bd ab82 00be 6da0 863e
000000c0: 516b 88be 8012 583e e1b0 f83d 7f67 263e
000000d0: 301a 42bd e01a ee3d 8fcd 45be 745a 49bd
000000e0: 166f 4d3e 4e99 773e 6605 1e3d c1f1 a03d
000000f0: e3f5 1b3e a1a4 e4bb 7447 553e b80d 713d
00000100: 3297 6abe cb5e a53d dd1e 29be 9df3 59be
00000110: 9c7f 92bd c772 74be 363a e43d 5fa1 de3d
00000120: 71a0 49be 45d3 7c3e c33c fabd 730f 083e
00000130: 0e36 aebd 361e b8bd d160 da3c 3a9e 07bd
00000140: 1b56 393e e091 8abc 5106 a53d dfb8 aa3c
00000150: e3b7 e73d b952 80be 1cb3 a83d 9d01 183c
00000160: bbfd 0b3e ffb9 3d3d ded7 073e 33f5 80bd
00000170: 8bd1 57be 39ee 6b3e 5ea6 26be 8529 7cbe
00000180: d502 76bd 7ab3 113d 3409 bbbd b61c 283e
00000190: 8a29 e33c 0533 b23d c053 3cbe 0bf0 47be
000001a0: 5a96 82be 7064 303d 0084 fd3d 0af5 c6bd
000001b0: b0a2 1fbe f4ba 103e 6217 e7bd 1ca7 8dbd
000001c0: 4078 59bc 7c5b dcbd 58f8 d73d e4a4 883d
000001d0: 0289 003e e0f5 463e 181b 1e3d f0f5 2d3e
000001e0: b26b 7e3e dc5d e33d 9e38 913d 6b00 7abd
000001f0: fb01 03be 0617 cb3d 5ec0 3bbe 37d5 163e
00000200: 0ca1 19bd 5239 783e 806f 953b 1a3a 4f3e
00000210: 07b7 443d 1cd7 99bd a0fc a13b 8c9a 3b3e
00000220: c467 6d3e 2264 4ebd 65f1 8cbd 0af6 7f3e
00000230: 6f34 85be 56a2 623e 16ca 653e 7f4c 3abd
00000240: c566 f53d b14d d23d fc31 6f3e 0ca0 fdbc
00000250: 2214 3c3d 455e d03c 32a3 b23d de65 803e
00000260: a8a3 7b3e 1a3c 7c3e d730 6cbe 065d 613d
00000270: 4092 573e d247 703e da42 b0bd 38d5 06bd
00000280: 26b5 2fbe d20e 783e 8092 fc3d db96 4dbe
00000290: 3689 443e aa78 aebd bac3 9fbd 7047 703d
000002a0: d135 6ebe
0.05698121 -0.23908238 -0.18944979 0.270559 0.0072603123 -0.24946232 -0.041258592 0.10681766
0.23208295 0.04678455 -0.023489187 0.13411371 -0.26535568 0.19936556 0.03834504 -0.2394985
0.010074168 -0.2683997 -0.077218056 -0.13771653 0.19325316 -0.23262839 -0.039485738 0.19475883
-0.058858857 -0.077439964 -0.1295722 0.13803098 -0.19065818 -0.0042767823 0.12382129 -0.040931836
-0.15664563 -0.019055933 0.26882866 0.10975534 -0.13230115 0.014714241 0.26267752 -0.13003722
-0.02394023 -0.06374344 -0.18677309 -0.22748911 -0.21272434 -0.059247844 -0.12549846 0.2629427
-0.26644376 0.21100807 0.12143112 0.16250418 -0.047388256 0.1162622 -0.19316696 -0.04915853
0.20061907 0.24179575 0.038579367 0.07858611 0.15230517 -0.006977633 0.20828038 0.058850974
-0.22909239 0.08074721 -0.1651568 -0.21284337 -0.07153246 -0.23871909 0.11143915 0.10870623
-0.1969011 0.24689968 -0.12218621 0.13287143 -0.08506404 -0.08990137 0.026657494 -0.03310988
0.18099253 -0.016915262 0.080578454 0.020840107 0.113143705 -0.25063112 0.082372874 0.009277728
0.13671009 0.046319958 0.1326594 -0.06296768 -0.21076028 0.23040093 -0.16274402 -0.24625213
-0.060061295 0.035571553 -0.09132615 0.16417202 0.027729768 0.087011375 -0.18391323 -0.19525163
-0.25505334 0.043064535 0.123786926 -0.09714706 -0.15589404 0.14133817 -0.11283757 -0.06916639
-0.013273299 -0.10759637 0.10545415 0.066720754 0.12552264 0.19429731 0.038600057 0.16988349
0.2484577 0.11101887 0.07090877 -0.061035555 -0.12793724 0.09916501 -0.18335101 0.14729773
-0.037507102 0.24240616 0.004560411 0.20237008 0.04802611 -0.07511732 0.0049434453 0.18320674
0.23184115 -0.050388463 -0.0688198 0.249962 -0.26016566 0.22132239 0.22440371 -0.04548311
0.11982492 0.10268725 0.23358911 -0.030960105 0.045917638 0.025435576 0.08722533 0.25077718
0.24574149 0.24632302 -0.23065506 0.055020355 0.21051884 0.23464897 -0.08606501 -0.032918185
-0.17158946 0.24224404 0.1233263 -0.20077078 0.19192967 -0.085191086 -0.07801004 0.058661878
-0.23262717

fc3.bias f4 [13]
00000000: 339a c13d 580d 4dbe af81 35be 3974 e33c
00000010: b108 58be 5611 9b3e ef62 4a3e 4adf ef3d
00000020: e2ad 89be 0a91 2abe f69c 53be a8ec 99bb
00000030: e5ca 1cbe
0.09453239 -0.20024621 -0.17725252 0.02776538 -0.21097066 0.30286664 0.19764303 0.11712511
-0.26890475 -0.1665689 -0.20665345 -0.004697401 -0.15311773

out.weight f4 [1, 13]
00000000: 4564 3ebd 3e25 b0bd 28e0 e3bd 0c52 09be
00000010: a7af f2bc 4ff5 673e 4d00 d339 2518 863e
00000020: 809e 2a3e aceb 13bd 8223 e03d 2376 c23d
00000030: 5004 b03c
-0.046482343 -0.086008534 -0.11126739 -0.13410205 -0.029624773 0.22652172 0.0004024528 0.26190296
0.16662025 -0.036113426 0.109442726 0.09495189 0.021486431
