model/lightning_id_iris.pt (torch, 3036 bytes, 6 tensors)

fc1.weight f4 [8, 4]
000000 a3 b3 af be 82 8b 0d bf 4d ec 42 3f 01 0a 72 3f
       -0.3431674 -0.55291 0.76141816 0.94546515
000010 dc 7a 12 be 08 42 b8 bd c0 ab 88 3d f2 30 a1 be
       -0.1430468 -0.089969695 0.06673384 -0.31482655
000020 97 aa 4b be f3 08 c8 be 27 f5 3f 3f 41 8a d8 3f
       -0.19889294 -0.39069328 0.7498345 1.6917192
000030 30 b6 fe be bc cc 0b be de 68 99 be 80 ea 9d bc
       -0.49748373 -0.13652319 -0.2996282 -0.019276857
000040 80 52 b7 3c 30 5f 1f bd 28 ac c3 bd 46 2e c5 be
       0.022378206 -0.038909137 -0.095543206 -0.38511866
000050 c6 41 08 3f aa 46 34 3f 77 98 ae be 39 2f ff be
       0.5322536 0.70420325 -0.34100696 -0.49840716
000060 c8 71 9c be a8 06 aa 3d 9e 30 c2 be 84 9c c7 be
       -0.30555558 0.08302051 -0.37927717 -0.389866
000070 c2 9c 00 bd 32 2a 1f bf 25 ee f9 bb 8e 7e 06 bf
       -0.031399496 -0.6217376 -0.007627266 -0.5253686

fc1.bias f4 [8]
000000 98 7d 8d bf fc 20 1b be f1 bf a8 bf d6 06 8d be
       -1.1053953 -0.15149301 -1.3183576 -0.27544278
000010 7c 42 07 3e d5 84 50 3f 5c b2 19 be f0 f5 a0 be
       0.13208956 0.81452686 -0.15009445 -0.31437635

fc2.weight f4 [9, 8]
000000 eb a2 cb be 00 5a 29 3b a7 62 b0 bc 33 1a 32 be
       -0.39772734 0.0025840998 -0.021531416 -0.17392807
000010 4e cb f6 bd 7b 11 c3 bd d6 1a 7e 3e 1c e4 67 3d
       -0.12050496 -0.095248185 0.24814925 0.056614026
000020 f5 a5 14 bf 19 8c 99 3e 53 c2 21 c0 49 f5 83 3e
       -0.5806573 0.299897 -2.5274856 0.25773075
000030 d6 21 55 3e 5e b1 e8 3e 9c 15 8d be 5a a3 bd 3e
       0.20813689 0.4544782 -0.2755555 0.3703869
000040 89 be b5 3e cc f3 7a be 95 61 79 3f da 7b 18 be
       0.3549693 -0.24507064 0.97414523 -0.14890996
000050 25 f1 b3 3e 55 04 0d 3e f0 0c e2 bc 41 5e 15 be
       0.35144916 0.13771184 -0.02759406 -0.14586736
000060 cc a3 d5 be 7c b1 9c 3d 0c e6 6b bf d0 3e c0 bd
       -0.4172653 0.0765104 -0.921479 -0.093869805
000070 8c c2 eb 3d 2b aa 20 3f 8a a2 0a 3e 17 7d 03 3e
       0.11511716 0.62759656 0.13538566 0.12840687
000080 ff 14 df be b8 40 0d 3d da 5f d1 be 33 ec ac 3e
       -0.43570706 0.03448555 -0.4089344 0.33773956
000090 b0 ec 95 bd ae 8a a6 bd 1e 90 75 3e 00 40 05 38
       -0.07320535 -0.0813192 0.23980758 3.1769276e-05
0000a0 bd 99 25 bf c0 f7 1f 3d d9 73 68 bf f0 66 84 bd
       -0.6468771 0.039054632 -0.9080177 -0.06464946
0000b0 9e 7e eb bd 0e aa a1 3e f8 6a 5d bd e5 24 58 3e
       -0.1149876 0.31575054 -0.05405709 0.21107824
0000c0 59 0a 90 be c3 b8 aa 3e 6a bd 93 be 42 61 b1 be
       -0.28132895 0.33344087 -0.2885545 -0.34644514
0000d0 5c 5d be 3d c0 61 49 bc aa 2e 22 3e 42 19 07 3e
       0.09295151 -0.012291372 0.15838113 0.13193229
0000e0 a1 c5 a5 3f 40 ee 28 bc 72 60 c1 3f c0 e7 f2 bc
       1.2950937 -0.0103107095 1.5107558 -0.029651523
0000f0 c7 3c 97 3e 9f 85 e3 3e 21 6a 8d 3e 46 d6 b5 bd
       0.29538557 0.44437882 0.27620032 -0.0887876
000100 2b 58 a2 be 48 0e c9 bd f9 ee 54 bf 18 0f 80 be
       -0.31707892 -0.09817177 -0.83177143 -0.25011516
000110 8e 39 64 3e 99 96 02 3f f8 9b bb bd 6a 33 38 3e
       0.2228758 0.51011044 -0.09160608 0.17988363

fc2.bias f4 [9]
000000 93 d1 89 3f 1f 88 13 3f 86 f6 9a bf 84 f2 e3 3f
       1.0767082 0.5762958 -1.2106483 1.7808385
000010 dc c6 b9 be a1 7a b9 3d e7 09 32 be c2 80 c4 bf
       -0.3628453 0.09056593 -0.1738659 -1.5351794
000020 bd f9 b8 3f
       1.4451214

out.weight f4 [3, 9]
000000 b8 58 82 bf a4 e5 19 40 4c f5 8c bf fa 12 92 3e
       -1.0183325 2.4046412 -1.1012359 0.28530103
000010 e7 de 80 bd 9f 22 3c 3f d8 c7 85 be 13 84 13 c0
       -0.06292515 0.7349033 -0.2612903 -2.3049362
000020 3d 20 c6 3e d6 73 b5 3e b8 da 02 c0 07 c4 8b be
       0.3869647 0.35439938 -2.0445995 -0.27297994
000030 11 2a db 3e 30 c1 be be 32 6f 27 3d f9 c8 a2 3e
       0.42805532 -0.37256765 0.04087753 0.31793955
000040 9f c6 41 3d 01 11 04 3f 8f 19 8f 3e fc 93 44 bf
       0.04730856 0.51588446 0.27949187 -0.76788306
000050 78 84 3c 3f 6b 9c d8 bf ea 3c 88 be 57 39 55 bf
       0.7363963 -1.6922735 -0.26608974 -0.8329062
000060 28 b1 14 3e b0 71 62 3f 99 65 b2 bf
       0.14520705 0.88454723 -1.3937255

out.bias f4 [3]
000000 f7 f9 98 be 22 18 b5 3f ff 02 9c bf
       -0.29878208 1.414799 -1.2188414
