trained_parameters/l_id_iris.pt (torch, 3036 bytes, 6 tensors)

fc1.weight f4 [8, 4]
00000000: 3f86 c6be cf4b 55bf 865e 8b3f 193b 1840
00000010: d41e b4be 3403 b03e 70ae c6bd c20f bc3e
00000020: 7e3d 9dbe 3866 db3d b82b 923e 6464 21be
00000030: f80c e23d 1e57 84be a0b2 dfbe 40f2 c03d
00000040: 1c5a 213e 7ccc 1ebe 7ae8 b3be 4012 fabe
00000050: dc3b 8fbe 5663 84be c07d e0bd 44e1 e33e
00000060: 4abe 89be 3657 d0be 3a82 aa3e 2a86 c1be
00000070: ba8b 0fbe 7fcb 5abf d70c ffbe f657 873b
-0.38774297 -0.833188 1.0888221 2.378607 -0.3517977 0.34377444 -0.0970124 0.36730772
-0.30710977 0.10712856 0.2854898 -0.15760952 0.1103763 -0.25847715 -0.43690968 0.094212055
0.1575703 -0.15507692 -0.35138303 -0.4884205 -0.27975357 -0.25857037 -0.10961485 0.44507802
-0.26902992 -0.40691537 0.3330248 -0.37797672 -0.14018145 -0.8546676 -0.49814484 0.004130359

fc1.bias f4 [8]
00000000: 7595 8cbf f687 bfbe 804d 3fbc a266 bc3e
00000010: 16e1 d4be 7e1f e03e 1a66 923e e7be 6bbe
-1.0983111 -0.37408417 -0.011676192 0.36797053 -0.41577977 0.43774027 0.28593522 -0.23022042

fc2.weight f4 [9, 8]
00000000: 7d5c 873e 3067 2d3d a094 51bd d01d 37bd
00000010: d22e f0bd 90d1 e13d 1acf 4e3e 1509 1a3e
00000020: f640 503f de9d 653e 2c7e 80be 377d 893e
00000030: ec1b d8bd ba6b 2f3e e50a 61be bddd 843e
00000040: 2c25 56bf 0426 a23d e8c4 3fbd 20a2 bbbc
00000050: 4885 03bd 07b2 08be 327e 9ebe 50fe c2bd
00000060: 2bbc 22bf 78cc 8ebd b8e5 b2be ed91 9d3e
00000070: ac34 ca3d 5f7f 34be f032 a13c 9e24 ae3e
00000080: a4a7 803f 5f3c b03e 4013 3fbe 1105 853e
00000090: 44c3 9d3d 53bc 4ebe 08ad 53bd 48e7 403e
000000a0: 780b cbbe 2490 2abe 8caf d13d bea9 023e
000000b0: 5c57 0fbe 4365 2cbe a051 eebc d230 22bf
000000c0: 1020 9c3c fb39 ad3e 3450 aebd 16e0 5c3e
000000d0: c35e a13e b46d 90bd a857 0e3d 3426 903d
000000e0: 0350 eebe 00c7 a0bd 62ec 643e b3c7 01be
000000f0: 837a 89be a9ec 873e f8da 343d 458e febe
00000100: 7d2c 9f3f 660f 7bbe c07f 313d 2235 a8be
00000110: f802 e13d 0233 3c3e 43c6 77be b474 4e3e
0.2643775 0.042334735 -0.05116713 -0.044706166 -0.1172768 0.11026299 0.2019619 0.15042527
0.8134912 0.22423503 -0.25096262 0.26853344 -0.10552201 0.17130938 -0.21976812 0.25950423
-0.8365047 0.07917407 -0.046818644 -0.022904456 -0.03210953 -0.13349162 -0.30955654 -0.095211625
-0.6356837 -0.06972593 -0.34940886 0.30775395 0.098733276 -0.17626713 0.01967761 0.34012312
1.005116 0.3442106 -0.18659687 0.25980428 0.077032596 -0.20189027 -0.051678687 0.18838227
-0.39657187 -0.16656548 0.10238561 0.12760064 -0.13998169 -0.16835503 -0.029091656 -0.63355744
0.019058257 0.33833298 -0.08511391 0.21569857 0.3151761 -0.07052174 0.034751564 0.07038537
-0.4654542 -0.07850456 0.22355798 -0.12673835 -0.26851282 0.26547745 0.044154137 -0.49717918
1.2435452 -0.24517593 0.043334723 -0.32853037 0.10986894 0.18378833 -0.24196725 0.20161706

fc2.bias f4 [9]
00000000: b158 553c baad f0bf 2cf4 9cbf 468a 3840
00000010: ecf4 90b8 e936 dabe 3cb9 a0be d728 0540
00000020: 6fdc e1b9
0.013021634 -1.8803017 -1.2262015 2.8834395 -6.912075e-05 -0.42620018 -0.31391323 2.0806177
-0.0004307958

out.weight f4 [3, 9]
00000000: a2a6 75c0 5dbe a4bf 212b 43be 8011 2240
00000010: 8a88 a6c0 7dfd d1bd eaab 4c3e 3340 ef3f
00000020: f11c b6c0 438a 823e b904 23bf 5cc6 3e3f
00000030: 8c58 4c3f 1314 9c3e 88f2 7b3e 2277 1a3e
00000040: 96df e53e 8c44 0b3e fe1f 873e f104 cc3f
00000050: 65ad 8dbf 3f09 34c0 2293 293f 07fd 383e
00000060: c284 2b3e 86c3 afbf ce12 2e3f
-3.8382955 -1.2870594 -0.19059421 2.532318 -5.2041674 -0.10253427 0.19987455 1.8691467
-5.691033 0.2549611 -0.6367908 0.7452142 0.7982261 0.30484065 0.24604237 0.15084508
0.44897145 0.13600367 0.26391596 1.5939008 -1.1068541 -2.8130643 0.6624013 0.18065272
0.16749862 -1.3731544 0.67997444

out.bias f4 [3]
00000000: f922 703f 36b8 853f e03d e4bf
0.93803364 1.0446842 -1.7831383
