trained_parameters/l_LSTM_airpollution.pt (torch, 49696 bytes, 10 tensors)

lstm.weight_ih_l0 f4 [112, 14]
0.57917666 0.73729414 0.13044049 0.30061206 0.5076091 -0.18683775 -0.009609894 -0.5186753
0.62228197 -0.06451861 -0.29935884 0.61660576 -0.030320402 -0.12013646 -0.14870152 -0.2619471
-0.12719044 0.046047952 -0.7884698 -0.3104019 -0.4170201 -0.25822535 -0.33632776 0.112868056
0.23241253 0.091703616 -0.7693367 -0.21063454 -0.42042723 0.21685511 -0.10921456 -0.121956155
-0.38141212 -0.8425848 0.0732401 0.09372658 0.72049564 -0.3162102 -0.31939706 0.434071
-0.082822934 0.09519847 0.838103 0.42854947 -0.6374172 -0.29504496 0.22117817 0.31581306
0.17668666 -0.28927398 -0.2853357 -1.1529862 1.2312201 -0.023433343 -0.34022307 0.84133595
0.18328433 -0.4774122 0.11779624 -0.7221499 1.0983207 -0.88053507 -0.11132292 0.2457124
-0.8474314 -0.20687497 -0.31801766 0.11300481 -0.19954346 2.7642462 -0.046631686 1.0862235
0.56118554 0.4092711 0.39808124 -0.968426 0.34222063 -0.14824386 -0.72761035 -0.101469204
-0.37754303 0.05238619 -0.22539702 -0.15208139 1.2178668 -1.3181796 -0.94166005 -0.48813805
0.05557361 -0.09920068 -0.36836934 -0.07406911 -0.8197275 -1.0619458 0.93479234 -0.15349264
-0.26317462 0.11143386 0.43438467 0.36287355 -0.8565855 -0.7347671 0.54361004 -0.34671462
0.026534531 0.41893083 0.6108399 0.36564758 -0.22805308 -0.11005712 -0.007941767 0.24507627
-0.14235897 -0.52601445 0.36121812 -0.7269551 -0.3236135 -0.5975436 0.33836415 -0.23182158
0.5997056 0.07212346 -0.41228825 -0.17236158 0.28153417 -0.33416384 0.09824315 -0.49416688
-0.8834429 -1.0922002 0.25980246 -0.2622226 0.031522226 0.5806065 0.89919186 -1.415532
-0.5458587 -0.05596532 0.07822935 -0.004588324 -0.6057283 -0.4384031 0.031983286 0.16857988
0.37417957 -1.097806 -0.017069547 -1.4524711 0.3184096 -0.24394308 0.6096092 0.8123836
-0.17649613 -0.30939677 -0.34559962 -0.12513117 0.0042728623 0.38104665 -0.79635096 -0.001370685
-0.40246564 0.26866108 0.13361828 -0.77390355 -0.54782 -0.12684034 0.015042629 0.005594172
-0.43800226 -0.58671445 -1.3050452 0.32077482 -0.17332567 -0.83065265 -0.05420491 1.1486666
0.12310674 -0.04548171 -2.0129743 0.108391985 -0.15485573 1.2845997 -0.031641826 -0.13933729
0.20281345 -0.0077528707 -0.06741445 0.15863939 0.17499737 0.037715565 -0.032410905 -0.06648531
0.37182134 -0.16238788 -0.1171587 0.015760114 -0.99976856 -1.5808464 -0.32861644 0.2415711
0.07950719 0.08422252 0.046585318 0.60046166 0.12049063 -0.79987633 -0.53439647 1.7409756
-0.005178078 1.2046245 -0.74590045 0.5602313 0.050400216 0.26583093 0.5959331 -0.21986067
1.1453367 0.1362853 0.60010207 -0.55129504 -0.5617774 0.28672314 0.23039633 0.17559953
-0.043707862 -0.03943243 0.27794522 0.27664834 -0.0030185173 -0.06953969 -0.7869294 -0.029944543
0.41099173 -0.035734426 -0.26471636 -0.025654292 0.07622088 0.5761836 -0.096158795 -0.400392
0.59085417 -0.5136959 1.044929 -0.03845732 -0.43227243 -0.030930035 -1.0742445 -0.19815688
0.23681608 -0.026990015 0.8182187 -0.082570806 -0.2942748 0.041905463 0.29121497 0.19347177
00000000: ec44 143f 4fbf 3c3f 3192 053e d3e9 993e
00000010: acf2 013f 6552 3fbe d172 1dbc e8c7 04bf
00000020: df4d 1f3f 5522 84bd 9045 99be e0d9 1d3f
00000030: 7e62 f8bc 1b0a f6bd 3645 18be ee1d 86be
00000040: 363e 02be c79c 3c3d 28d9 49bf ffec 9ebe
00000050: a983 d5be 1d36 84be 2733 acbe 5e27 e73d
00000060: 8dfd 6d3e 1bcf bb3d 40f3 44bf 95b0 57be
00000070: 3d42 d7be 440f 5e3e e2ab dfbd 26c4 f9bd
00000080: 7348 c3be a3b3 57bf e8fe 953d b9f3 bf3d
00000090: 6772 383f 4ee6 a1be 0388 a3be 8e3e de3e
000000a0: 129f a9bd 6af7 c23d eb8d 563f d66a db3e
000000b0: c62d 23bf 2210 97be 887c 623e 40b2 a13e
000000c0: 59ed 343e b81b 94be 8517 92be 0d95 93bf
000000d0: 9f98 9d3f 48f7 bfbc b831 aebe cb61 573f
000000e0: e3ae 3b3e 5f6f f4be 283f f13d d1de 38bf
000000f0: c695 8c3f bf6a 61bf 45fd e3bd 089c 7b3e
00000100: 44f1 58bf 08d7 53be 36d3 a2be 116f e73d
00000110: 1f55 4cbe 69e9 3040 de00 3fbd 5f09 8b3f
00000120: dba9 0f3f fb8b d13e 4ed1 cb3e c4ea 77bf
00000130: 8b37 af3e 3dcd 17be ac44 3abf 16cf cfbd
00000140: 524d c1be e792 563d 7ace 66be 39bb 1bbe
00000150: 0fe3 9b3f 1cba a8bf a210 71bf 3bed f9be
00000160: 27a1 633d ba29 cbbd e89a bcbe 8cb1 97bd
00000170: a9d9 51bf d7ed 87bf 8d4e 6f3f 2d2d 1dbe
00000180: d3be 86be 7037 e43d ab67 de3e 90ca b93e
00000190: 3049 5bbf b219 3cbf 072a 0b3f 9484 b1be
000001a0: f25e d93c 1a7e d63e 0160 1c3f 2936 bb3e
000001b0: bf86 69be a165 e1bd 2f1e 02bc 46f5 7a3e
000001c0: 8dc6 11be e2a8 06bf 95f1 b83e bb19 3abf
000001d0: abb0 a5be 9ef8 18bf 113e ad3e a362 6dbe
000001e0: 4e86 193f 77b5 933d 7217 d3be 8e7f 30be
000001f0: 3f25 903e 8617 abbe b433 c93d 7103 fdbe
00000200: 5029 62bf 37cd 8bbf d404 853e 0a42 86be
00000210: 731d 013d a1a2 143f 7031 663f 2730 b5bf
00000220: 65bd 0bbf e43b 65bd b636 a03d a759 96bb
00000230: 0311 1bbf 5f76 e0be e800 033d 34a0 2c3e
00000240: 7794 bf3e e884 8cbf 6fd5 8bbc 93ea b9bf
00000250: 9506 a33e 37cc 79be 590f 1c3f 5ff8 4f3f
00000260: 67bb 34be 4169 9ebe 6ff2 b0be 6322 00be
00000270: 5e03 8c3b 8c18 c33e a8dd 4bbf 8ea8 b3ba
00000280: fa0f cebe f28d 893e 3bd3 083e 8b1e 46bf
00000290: ee3d 0cbf 6fe2 01be 5c75 763c 514f b73b
000002a0: d541 e0be eb32 16bf b90b a7bf 993c a43e
000002b0: 497c 31be a7a5 54bf f805 5ebd 8207 933f
000002c0: 631f fc3d 084b 3abd 92d4 00c0 9efc dd3d
000002d0: 8092 1ebe c36d a43f dc9a 01bd 6fae 0ebe
000002e0: 54ae 4f3e cb0b febb 9610 8abd 5d72 223e
000002f0: 8332 333e a37b 1a3d 4cc1 04bd 7329 88bd
00000300: 5e5f be3e 0249 26be e7f0 efbd 5b1b 813c
00000310: d5f0 7fbf 2d59 cabf 6a40 a8be 6a5e 773e
00000320: aad4 a23d db7c ac3d 3fd0 3e3d dbb7 193f
00000330: cbc3 f63d b2c4 4cbf 35ce 08bf 4ad8 de3f
00000340: deac a9bb 2331 9a3f 55f3 3ebf 526b 0f3f
00000350: 7570 4e3d fe1a 883e 128f 183f 2823 61be
00000360: 659a 923f 608e 0b3e 4aa0 193f ac21 0dbf
00000370: a5d0 0fbf 60cd 923e 04ed 6b3e 5dd0 333e
00000380: 0407 33bd e683 21bd d64e 8e3e daa4 8d3e
00000390: 51d2 45bb d36a 8ebd 3574 49bf 424e f5bc
000003a0: 826d d23e 435e 12bd e788 87be f328 d2bc
000003b0: b119 9c3d c580 133f e7ee c4bd 2e00 cdbe
000003c0: 3842 173f 9381 03bf 3cc0 853f 6c85 1dbd
000003d0: d052 ddbe fc60 fdbc d880 89bf a3e9 4abe
000003e0: ea7f 723e 2a1a ddbc c876 513f e21a a9bd
000003f0: 30ab 96be 10a5 2b3d 211a 953e 771d 463e

lstm.weight_hh_l0 f4 [112, 28]
0.06597578 -0.12816693 -1.3338083 -2.0427117 -0.77719617 0.18645793 0.41325584 -0.60966355
-0.74983716 -0.15364571 0.5636075 -1.0705638 -1.0170039 -0.5183136 -0.49258608 0.61422557
-0.27169558 0.17929353 -0.9160619 1.5505149 -0.41617844 1.3743908 -1.0305823 1.1814286
0.40872434 -0.82992464 -0.3439886 -0.12516512 0.1562892 -0.00731056 0.4841848 0.52458954
0.5126566 0.21295017 -0.042303815 0.18419325 -0.42095795 -0.42457217 0.065264896 0.96639663
-0.2931122 0.1332896 0.0046123033 -0.55306613 0.01706838 -0.6602649 0.89611715 0.004712855
-0.1823487 0.5277859 -0.16944313 -0.32377228 0.4472901 0.26341057 0.09559938 0.27813002
-0.032776337 0.057657104 0.78830105 2.0157614 0.5457488 0.30117443 -0.42431945 0.22279115
-0.43102705 1.2060639 -0.2669761 -0.1177507 -1.0348891 -0.59316814 -1.8115786 -0.44342294
-0.48377576 0.7166534 0.3440381 0.83275694 0.4669331 -0.5493974 0.7635087 -0.6102033
0.12961483 0.6573586 -0.91908646 0.067286186 -0.8092201 0.17977048 -1.6293854 -0.2565745
1.2172779 0.38073403 -0.358902 -0.1374412 0.4734056 -0.3651187 0.88057035 0.18825446
0.37824953 0.3029394 0.3079878 0.18022713 0.23924196 -0.9766231 0.77807707 -0.9117752
0.226758 -0.86355984 0.6874135 2.050765 -0.08813032 0.24487956 1.1921998 -1.3606926
-0.03900776 -0.78821146 -0.35587272 0.73427576 -0.290529 0.4883907 1.0064996 0.068197675
-0.5135513 -1.1346403 0.07770077 0.16717224 -1.2601476 0.15865965 -1.1899195 -1.1349901
-0.39065522 0.40321591 0.67486036 0.15910546 0.32997036 -0.75722486 0.021508351 -0.12954317
-0.30027997 0.08695287 -0.61953306 -0.11307254 0.30289388 -0.80263877 -0.5877537 -0.5766968
-1.1800832 0.2591317 -0.19941673 0.29665756 -0.33273003 -1.0539718 0.5967441 -0.20383409
0.8569088 -0.70164067 0.029673811 0.23530665 0.58507746 0.581227 0.3600376 0.91964453
0.48632568 1.024786 0.0056172702 0.25774488 0.815961 -0.30693462 0.25226855 0.13537996
0.21805923 -0.314364 -0.30804023 1.9462724 1.0773864 0.3208302 0.27228627 -0.85633165
0.048793994 0.3226659 0.2844461 -0.00650079 0.8725722 0.025946742 0.08073457 -0.583851
-0.14067705 0.29798222 -0.71886355 0.706827 -0.023643445 0.24504666 0.3286511 -0.07408303
-0.256095 1.0536598 0.4369411 0.008556545 -0.21207088 -0.2295289 -0.028458381 -0.3725396
0.74795544 -0.59187746 0.23555803 0.36250195 -0.15004833 0.28511637 0.4963661 -0.11915744
-0.17548314 -0.5775614 0.52884144 -0.018665496 0.12606733 -0.0720511 -0.71330035 0.4436741
0.03421168 -0.19662762 -0.49349606 -0.15994735 0.16352749 0.35664794 0.17292447 0.33858967
0.6837635 0.33872285 -0.6735094 0.5577886 -0.36865625 1.0278348 -0.13338555 -0.24820016
0.5278904 -0.842193 0.08633764 0.5372834 0.5462384 -0.15698254 -0.094565056 -1.5713476
0.375386 -0.118300095 -0.42627662 -0.46517473 1.1199402 -0.5090382 0.23839822 -0.10249574
0.47645226 -0.07071646 -0.40260625 -0.7202193 0.499872 0.1897619 1.0880611 -0.533884
00000000: 4f1e 873d 313e 03be 3bba aabf cabb 02c0
00000010: 54f6 46bf d4ee 3e3e 4596 d33e e912 1cbf
00000020: 54f5 3fbf 4d55 1dbe 9548 103f 3c08 89bf
00000030: 2f2d 82bf 33b0 04bf 3e34 fcbe e33d 1d3f
00000040: af1b 8bbe b998 373e 0883 6abf 4677 c63f
00000050: 5715 d5be 0aec af3f 1fea 83bf 0d39 973f
00000060: 5144 d13e f175 54bf 461f b0be 492b 00be
00000070: 470a 203e 6c8d efbb 12e7 f73e 804b 063f
00000080: 773d 033f 9c0f 5a3e c446 2dbd 289d 3c3e
00000090: cd87 d7be 8661 d9be 9aa9 853d c565 773f
000000a0: cd12 96be 127d 083e ce22 973b be95 0dbf
000000b0: fdd2 8b3c 1f07 29bf ef67 653f 4b6e 9a3b
000000c0: 9eb9 3abe fa1c 073f 8082 2dbe 7bc5 a5be
000000d0: 3503 e53e c0dd 863e 9cc9 c33d 0f67 8e3e
000000e0: 7b40 06bd db29 6c3d 19ce 493f 3c02 0140
000000f0: 31b6 0b3f 8933 9a3e 6640 d9be 5d23 643e
00000100: 94af dcbe 4d60 9a3f 17b1 88be 4727 f1bd
00000110: 3f77 84bf ded9 17bf cfe1 e7bf 5508 e3be
00000120: 75b1 f7be 9976 373f c325 b03e 8f2f 553f
00000130: db11 ef3e 4fa5 0cbf 4e75 433f 4936 1cbf
00000140: c0b9 043e a748 283f 4049 6bbf 57cd 893d
00000150: 0c29 4fbf c115 383e b38f d0bf bc5d 83be
00000160: c3cf 9b3f 92ef c23e 01c2 b7be 63bd 0cbe
00000170: 3862 f23e d7f0 babe 0f6d 613f c7c5 403e
00000180: eca9 c13e df1a 9b3e 94b0 9d3e 768d 383e
00000190: d8fb 743e f903 7abf 0f30 473f 196a 69bf
000001a0: 4033 683e 4212 5dbf 55fa 2f3f bc3f 0340
000001b0: ab7d b4bd b5c1 7a3e 019a 983f 2d2b aebf
000001c0: 9ac6 1fbd 3ac8 49bf f334 b6be 7ff9 3b3f
000001d0: 38c0 94be 590e fa3e fbd4 803f 39ab 8b3d
000001e0: 1978 03bf e53b 91bf 9521 9f3d 332f 2b3e
000001f0: 844c a1bf ad77 223e 484f 98bf 5b47 91bf
00000200: f603 c8be 5172 ce3e a6c3 2c3f 8bec 223e
00000210: e0f1 a83e 7dd9 41bf 4832 b03c f7a6 04be
00000220: 4cbe 99be 5914 b23d b899 1ebf 9392 e7bd
00000230: e814 9b3e bc79 4dbf 0777 16bf 67a2 13bf
00000240: f70c 97bf e9ac 843e e633 4cbe 80e3 973e
00000250: 975b aabe 8ce8 86bf 39c4 183f e2b9 50be
00000260: 605e 5b3f b99e 33bf 7e16 f33c 3af4 703e
00000270: a3c7 153f 4bcb 143f d956 b83e d36d 6b3f
00000280: aeff f83e 302c 833f 1411 b83b 23f7 833e
00000290: d2e2 503f 8926 9dbe 5829 813e 0ba1 0a3e
000002a0: eb4a 5f3e 51f4 a0be 73b7 9dbe 741f f93f
000002b0: cce7 893f db43 a43e 1b69 8b3e 8d38 5bbf
000002c0: 36dc 473d 7734 a53e eba2 913e 9404 d5bb
000002d0: e460 5f3f 438e d43c 2b58 a53d 4277 15bf
000002e0: a50d 10be 2091 983e 7107 38bf 9df2 343f
000002f0: e6af c1bc 83ed 7a3e f544 a83e d8b8 97bd
00000300: e21e 83be 53de 863f beb6 df3e c030 0c3c
00000310: 1c29 59be a009 6bbe 8d21 e9bc 83bd bebe
00000320: 027a 3f3f 4885 17bf 2036 713e db99 b93e
00000330: 45a6 19be c6fa 913e b323 fe3e d108 f4bd
00000340: dab1 33be 10db 13bf 2762 073f 62e8 98bc
00000350: cb17 013e 878f 93bd da9a 36bf 4029 e33e
00000360: 8c21 0c3d c058 49be 84ab fcbe 3dc9 23be
00000370: c073 273e 8f9a b63e 1d13 313e a05b ad3e
00000380: 200b 2f3f 156d ad3e 1d6b 2cbf 3ccb 0e3f
00000390: 83c0 bcbe 1790 833f 3996 08be 2f28 7ebe
000003a0: d323 073f f699 57bf cad1 b03d 688b 093f
000003b0: 48d6 0b3f 08c0 20be 53ab c1bd eb21 c9bf
000003c0: 9832 c03e 5247 f2bd ee40 dabe 622b eebe
000003d0: 335a 8f3f 5450 02bf aa1e 743e 49e9 d1bd
000003e0: 8df1 f33e cbd3 90bd 6822 cebe 4b60 38bf
000003f0: 39ef ff3e f250 423e 9645 8b3f 9fac 08bf

lstm.bias_ih_l0 f4 [112]
-0.097176485 -0.026007626 -0.39902326 0.2156385 -0.99709576 -0.4052806 -0.32814595 0.08670445
0.070133224 -0.56898326 -0.56596166 -0.32824078 -0.4023365 0.28732625 -1.0737687 0.4734409
-0.836773 0.0011336182 0.1043629 -1.1961986 -0.09332758 -1.0005484 0.167138 -0.17450508
-0.30944908 -0.5054579 -0.21665211 -0.47871408 -0.8238698 0.13326253 -0.0034217737 -0.18857299
-0.5597877 -0.3824479 0.013534798 -0.33525255 -0.11215958 -0.07882692 -0.050678324 -0.57238007
-0.5102572 -0.5265249 -0.32140446 -0.00055014784 0.3890133 0.120709956 0.18546905 -0.6369545
0.32670578 -0.37134358 -0.89401823 0.40477508 0.021954205 -0.46645775 0.07770575 -0.59912646
-0.06679786 -0.4078389 -0.35491472 0.49173713 0.4052749 -0.11264118 -0.23611982 0.38941458
0.15890326 -0.2167378 0.36890018 -0.036133323 0.6499196 -0.34773588 0.24872845 0.5641132
0.22264336 -0.43687564 -0.6762268 -0.49709502 0.024552526 -0.12513876 -0.48924217 0.6642726
-0.5555595 -0.24478206 0.5768196 -0.36733103 0.26084512 0.8749438 -0.6021793 -0.4542611
-0.6833097 0.22364129 -0.50347173 0.39564198 0.10180263 -0.73133075 -0.47868013 -0.0015857866
-0.6761669 0.84267277 -0.83124185 0.34175947 0.16675365 0.4998986 1.2327389 -0.651889
0.33935505 -0.516066 -0.07726386 -0.47271335 -0.11525313 -0.6592245 -0.5148726 -0.5103686
00000000: 7704 c7bd f20d d5bc c74c ccbe 57d0 5c3e
00000010: ab41 7fbf f080 cfbe bf02 a8be 1a92 b13d
00000020: 02a2 8f3d e3a8 11bf dde2 10bf 2d0f a8be
00000030: 0dff cdbe 6d1c 933e 4171 89bf d866 f23e
00000040: c136 56bf ea95 943a 37bc d53d 091d 99bf
00000050: 8822 bfbd f811 80bf 3926 2b3e 76b1 32be
00000060: 1c70 9ebe b065 01bf 0dda 5dbe 031a f5be
00000070: 22e9 52bf f975 083e d63f 60bb 4719 41be
00000080: 3f4e 0fbf 36d0 c3be 0fc1 5d3c 39a6 abbe
00000090: ecb3 e5bd 0270 a1bd 1394 4fbd 8087 12bf
000000a0: 37a0 02bf 56ca 06bf 208f a4be cc37 10ba
000000b0: c02c c73e c836 f73d 99eb 3d3e 730f 23bf
000000c0: fb45 a73e bf20 bebe 61de 64bf ae3e cf3e
000000d0: 4ed9 b33c 8dd3 eebe 3124 9f3d 5a60 19bf
000000e0: 51cd 88bd 43d0 d0be 62b7 b5be f8c4 fb3e
000000f0: 3180 cf3e 6bb0 e6bd 65c9 71be 5961 c73e
00000100: 89b7 223e 84f0 5dbe 7ce0 bc3e 8900 14bd
00000110: 2261 263f 700a b2be acb2 7e3e b969 103f
00000120: 9ffc 633e 2aae dfbe 331d 2dbf 3d83 febe
00000130: 6122 c93c 6024 00be f37d fabe c50d 2a3f
00000140: 2639 0ebf 26a8 7abe 73aa 133f d012 bcbe
00000150: 7e8d 853e 51fc 5f3f 6c28 1abf e994 e8be
00000160: 62ed 2ebf 3902 653e 86e3 00bf 9691 ca3e
00000170: e67d d03d 7e38 3bbf 9015 f5be 2bda cfba
00000180: 4619 2dbf 67b9 573f 44cc 54bf 19fb ae3e
00000190: 78c1 2a3e b6f2 ff3e 63ca 9d3f 33e2 26bf
000001a0: f2bf ad3e e71c 04bf 843c 9ebd 7c07 f2be
000001b0: d509 ecbd f0c2 28bf b1ce 03bf 84a7 02bf

lstm.bias_hh_l0 f4 [112]
-0.011437564 -0.2157161 -0.40626574 0.5148507 -1.124456 -0.39498037 -0.2871794 -0.019507697
-0.1735482 -0.59353703 -0.878982 -0.1784074 -0.69489056 0.3252128 -0.96116364 0.73868775
-0.60553396 -0.11180478 0.45367134 -1.0979645 0.067590185 -0.7046216 0.3710178 -0.18006356
-0.3531674 -0.46130338 -0.4415369 -0.51043266 -0.7976092 0.34718135 -0.13611495 -0.29207104
-0.6424844 -0.64280176 -0.15909141 -0.47676432 0.072607584 -0.2993579 -0.13214017 -0.7295185
-0.5055148 -0.19488831 -0.056426283 -0.13729866 0.34186462 -0.16957422 -0.16832486 -0.76715136
0.027383765 -0.12135415 -0.76872385 0.41435415 0.008766265 -0.75676197 -0.068351686 -0.5069671
-0.38954046 -0.48365867 -0.26566687 0.5064373 0.3879664 -0.24985014 -0.30990985 0.43886998
0.18278903 -0.43870223 0.18859755 -0.090430215 0.36594978 -0.33904442 0.43628675 0.75242585
-0.004425369 -0.22654012 -0.42744216 -0.37748682 -0.29932296 -0.40014875 -0.6705375 0.57240975
-0.86123025 -0.22404583 0.30154493 -0.43668398 0.43714476 0.9099454 -0.49837497 -0.43075845
-0.62451905 0.34364575 -0.6367487 0.48710662 0.01925613 -0.65637755 -0.460504 0.09131412
-0.69749063 0.6913718 -1.0663971 0.38243443 0.14312257 0.39146772 1.1319238 -0.7412185
0.5681239 -0.43120024 -0.16268428 -0.6117664 -0.37507245 -0.3921956 -0.5735481 -0.36967832
00000000: 9f64 3bbc aee4 5cbe 1002 d0be 41cd 033f
00000010: 2dee 8fbf de3a cabe 2e09 93be 9bce 9fbc
00000020: 9fb6 31be 0bf2 17bf f704 61bf 6eb0 36be
00000030: 59e4 31bf 4b82 a63e d20e 76bf a41a 3d3f
00000040: 4604 1bbf e8f9 e4bd 9c47 e83e 1a8a 8cbf
00000050: b96c 8a3d 1562 34bf 0cf6 bd3e 9562 38be
00000060: 5cd2 b4be f52f ecbe 2011 e2be b7ab 02bf
00000070: 1e30 4cbf c1c1 b13e b861 0bbe 568a 95be
00000080: dc79 24bf a88e 24bf dce8 22be 741a f4be
00000090: 49b3 943d 7045 99be c14f 07be b9c1 3abf
000000a0: 6b69 01bf cd90 47be 3f1f 67bd 0598 0cbe
000000b0: e108 af3e dda4 2dbe 5a5d 2cbe 0864 44bf
000000c0: eb53 e03c 8688 f8bd 16cb 44bf 3a26 d43e
000000d0: 61a0 0f3c 27bb 41bf f8fb 8bbd 99c8 01bf
000000e0: d971 c7be 1ca2 f7be 7d05 88be e0a5 013f
000000f0: 88a3 c63e b7d8 7fbe 81ac 9ebe 91b3 e03e
00000100: 0c2d 3b3e 949d e0be b71f 413e 7a33 b9bd
00000110: c55d bb3e 3b97 adbe fa60 df3e fb9e 403f
00000120: b002 91bb 22fa 67be b3d9 dabe f445 c1be
00000130: dc40 99be 4ce0 ccbe 58a8 2bbf 7289 123f
00000140: 9679 5cbf 456c 65be 1964 9a3e 0b95 dfbe
00000150: 70d1 df3e 2ff2 683f 012b ffbe 5f8c dcbe
00000160: 7be0 1fbf 56f2 af3e f601 23bf 0a66 f93e
00000170: 08bf 9d3c 5c08 28bf 2ec7 ebbe e602 bb3d
00000180: bf8e 32bf befd 303f b37f 88bf 72ce c33e
00000190: b98e 123e 756e c83e e1e2 903f 7fc0 3dbf
000001a0: 9170 113f 47c6 dcbe b596 26be b99c 1cbf
000001b0: 7f09 c0be ddcd c8be 0cd4 12bf 7a46 bdbe

lstm.weight_ih_l1 f4 [112, 28]
0.7943528 0.059969757 0.201024 1.2914779 1.1015936 -0.24670729 0.6919552 -0.43567213
0.21221787 -0.17067195 -0.6446341 0.48042908 0.12985247 -0.7476021 0.6892385 0.7347907
0.24837945 0.054598063 0.10021631 0.8670956 0.28518096 0.4036603 -0.55616087 -0.59894556
1.0117936 -0.22164156 -0.20568006 -1.1989717 0.36128947 -0.46652028 0.01775507 1.8442876
-0.26079288 -0.26460513 0.82431996 -0.24525248 -0.77502614 0.08493023 -0.6585138 -0.4457174
-0.6130191 1.0655775 -1.097505 0.29920936 -0.43221593 0.39361554 -0.42549023 0.44828883
-0.20723009 1.558889 0.89455724 0.03728267 -0.43478802 -0.06687051 -1.137615 -0.059726242
1.2337729 0.09275164 -0.30086172 1.9179356 0.8438936 0.46897185 0.2950089 0.008185165
-0.5377849 -0.047643542 0.0018417515 0.90124977 -0.72756016 0.30970562 -0.0047915494 0.42204377
0.169331 1.9776392 0.3365636 1.3312495 0.44622037 -0.28203216 1.0186785 -0.31734434
0.0029093048 -0.036932264 -0.5834646 0.7045881 -0.46869045 -0.07971464 0.273579 -2.2446284
-0.7229175 -0.6680302 0.34407428 -0.28376403 -0.030899392 0.54409087 -0.4476706 -0.21463637
-0.9884032 -0.16083856 -0.39974207 -0.15589029 -0.39851052 0.2671085 -0.7758061 1.3274338
-0.9288902 0.061392073 0.04252712 0.21136817 0.1030234 -0.6170821 -0.6561888 0.7315426
-0.07875626 -0.24402608 -0.31737733 0.06291226 0.52049434 -0.44337064 0.8270352 -0.27316156
-0.009383719 0.10782862 0.71503025 0.23266703 -0.3553711 0.11905921 -0.21553817 0.07355043
-0.13680373 -0.19727598 0.35846654 -0.31890586 -0.21907884 -0.81831455 -0.1218886 0.56171376
1.5471011 -0.06297042 0.0069854287 0.5360003 1.8290834 -0.94088995 0.38989344 1.8502712
1.0158129 0.8120139 -0.42570612 -1.1079133 0.36458156 0.3902983 0.03615652 0.1152878
-0.14296706 1.1936425 -0.20037508 -1.5735301 1.3454688 1.1480987 0.7390559 0.15716933
0.2937713 1.569131 0.45994237 -0.5733302 0.6505232 0.05167153 -0.22556473 -0.2756928
-0.21095793 -0.07310128 -0.6049277 -0.84533656 0.3291487 0.11158044 -0.55650634 -0.34703308
-0.43472472 -0.0563582 0.48476946 1.0305318 0.63113064 -0.40080684 -1.134333 -0.2661442
0.8618568 -0.38884595 -0.15472695 0.064800926 -0.3014479 0.44456634 -0.37248495 -0.7896617
0.031402152 -0.9963459 -0.7302381 -0.58507484 1.3894997 -0.25398242 0.25568587 0.6527687
0.8901281 1.4558266 -0.1542264 -1.3820181 0.105514094 1.2426596 1.1069385 -0.08065332
-0.0558142 1.9755342 -0.027828312 -1.8425857 0.06891416 2.267139 1.4342995 0.3684199
0.9127113 0.67355084 2.3790877 -1.9470717 -0.26991472 0.5641154 -0.60859585 1.5734285
0.007669207 -0.6437293 -0.24423502 1.7855982 0.620066 -0.25640458 0.6503281 0.0470543
-0.43542093 0.045357145 0.24689548 0.1659926 0.047094904 -0.22457907 -0.44109753 0.50510585
0.30927196 -0.093164004 -0.12075919 0.63150775 0.5437599 0.2874043 0.2171624 0.24574916
0.6733439 -0.6865592 -0.35826507 0.32690293 -0.3773979 -0.19444536 0.056089163 0.94782674
00000000: b55a 4b3f d9a2 753d 3cd9 4d3e 264f a53f
00000010: 0501 8d3f d6a0 7cbe fa23 313f 6b10 dfbe
00000020: a44f 593e a1c4 2ebe be06 25bf cdfa f53e
00000030: 0cf8 043e da62 3fbf ef71 303f 3e1b 3c3f
00000040: 2f57 7e3e 38a2 5f3d 353e cd3d faf9 5d3f
00000050: 3d03 923e 90ac ce3e 8f60 0ebf 7f54 19bf
00000060: 7482 813f 01f6 62be cb9d 52be e877 99bf
00000070: effa b83e bfdb eebe 1573 913c 9e11 ec3f
00000080: a586 85be 537a 87be a206 533f 7723 7bbe
00000090: 1d68 46bf e7ef ad3d 5c94 28bf 1235 e4be
000000a0: d2ee 1cbf d864 883f 0b7b 8cbf f831 993e
000000b0: 684b ddbe fa87 c93e dbd9 d9be 1d86 e53e
000000c0: 2034 54be ad89 c73f b401 653f b7b5 183d
000000d0: 899c debe 68f3 88bd 5e9d 91bf 81a3 74bd
000000e0: 45ec 9d3f 92f4 bd3d 8c0a 9abe ea7e f53f
000000f0: 6909 583f 141d f03e 680b 973e 121b 063c
00000100: 45ac 09bf e025 43bd ed66 f13a 4eb8 663f
00000110: 6241 3abf bc91 9e3e 6e02 9dbb 1f16 d83e
00000120: 1b65 2d3e 4823 fd3f 1052 ac3e 6266 aa3f
00000130: ff76 e43e 8566 90be 0f64 823f f57a a2be
00000140: 09aa 3e3b 4946 17bd f05d 15bf e35f 343f
00000150: 32f8 efbe 6e41 a3bd 8c12 8c3e fea7 0fc0
00000160: 1f11 39bf 0704 2bbf 812a b03e 8549 91be
00000170: b920 fdbc 8a49 0b3f 1535 e5be a3c9 5bbe
00000180: fe07 7dbf ddb2 24be feaa ccbe b4a1 1fbe
00000190: 9209 ccbe 72c2 883e 3b9b 46bf 5ae9 a93f
000001a0: c0cb 6dbf 4176 7b3d eb30 2e3d e670 583e
000001b0: effd d23d 18f9 1dbf fdfb 27bf 6046 3b3f
000001c0: f64a a1bd f9e1 79be 487f a2be 25d8 803d
000001d0: 1e3f 053f 7a01 e3be 94b8 533f d5db 8bbe
000001e0: 2cbe 19bc 40d5 dc3d 390c 373f 4440 6e3e
000001f0: 33f3 b5be 51d5 f33d 0ab6 5cbe 9ca1 963d
00000200: 4716 0cbe b702 4abe ed88 b73e a147 a3be
00000210: 3456 60be 107d 51bf bba0 f9bd 79cc 0f3f
00000220: 6907 c63f a3f6 80bd 06e6 e43b 5137 093f
00000230: 681f ea3f 2ade 70bf 1da0 c73e b0d5 ec3f
00000240: 2806 823f 25e0 4f3f 27f6 d9be 1ad0 8dbf
00000250: 6faa ba3e 2ed5 c73e dc18 143d 031c ec3d
00000260: f565 12be 47c9 983f 202f 4dbe 6f69 c9bf
00000270: 5238 ac3f e6f4 923f c432 3d3f fff0 203e
00000280: 3169 963e 49d9 c83f 917d eb3e c5c5 12bf
00000290: b088 263f 87a5 533d 71fa 66be 9b27 8dbe
000002a0: 5b05 58be 20b6 95bd 8bdc 1abf fa67 58bf
000002b0: 2e86 a83e 4984 e43d 3377 0ebf 52ae b1be
000002c0: 3d94 debe dbd7 66bd b433 f83e 77e8 833f
000002d0: c791 213f 8e36 cdbe d331 91bf 0d44 88be
000002e0: a6a2 5c3f d116 c7be be70 1ebe 59b6 843d
000002f0: 6157 9abe 339e e33e 59b6 bebe 4527 4abf
00000300: 8b9f 003d 8610 7fbf e2f0 3abf 77c7 15bf
00000310: 20db b13f fc09 82be 42e9 823e d91b 273f
00000320: 6fdf 633f 8758 ba3f 87ed 1dbe f8e5 b0bf
00000330: c617 d83d 780f 9f3f 29b0 8d3f 912d a5bd
00000340: 6e9d 64bd 4ede fc3f 33f8 e3bc d9d9 ebbf
00000350: de22 8d3d ce18 1140 2097 b73f 88a1 bc3e
00000360: 73a7 693f d46d 2c3f f942 1840 a539 f9bf
00000370: 4332 8abe de69 103f f0cc 1bbf 1b66 c93f
00000380: f94d fb3b 72cb 24bf bf18 7abe 7b8e e43f
00000390: a5bc 1e3f 7647 83be e77b 263f 02bc 403d
000003a0: 7eef debe 6ac8 393d 2bd2 7c3e f7f9 293e
000003b0: 96e6 403d 0ef8 65be 89d7 e1be 9e4e 013f
000003c0: e558 9e3e c5cc bebd 9850 f7bd 7eaa 213f
000003d0: d933 0b3f a826 933e d25f 5e3e aba5 7b3e
000003e0: 4460 2c3f 58c2 2fbf 856e b7be d25f a73e
000003f0: 4c3a c1be af1c 47be c0bd 653d c6a4 723f

lstm.weight_hh_l1 f4 [112, 28]
-0.08689944 0.60596657 0.47947225 0.10926996 0.27747026 0.45036945 0.3912337 0.07529324
0.5081319 0.23387933 0.51549095 -0.35004598 -1.1770344 1.420123 0.110390894 0.9816035
0.09418946 0.30393085 0.31002608 0.22597322 -0.97152305 0.8194298 -0.3666862 -0.059255973
-0.12016449 -0.36168227 -0.12944831 0.5025809 -0.4854246 0.071185894 0.40234712 -1.1419686
-0.41874596 0.470082 0.7779693 0.21247526 0.067931384 0.117553584 -0.23937117 -1.2713072
-0.6609395 0.67441756 -0.5881575 0.52009463 -0.055525217 -0.18735674 0.33669823 -0.4559491
-0.49658412 0.19546668 -0.27308717 -0.13230412 -0.580536 0.526713 0.6185288 0.1114029
0.18600732 -0.12639938 0.47373432 0.32603547 -0.4129668 1.0017654 -0.34117153 -0.27624345
0.043775618 -0.06228759 -0.8171957 -2.1548438 -1.7748395 -0.4687147 -0.19460437 0.4056148
0.5047824 -0.29718843 -0.19603233 -0.33957675 -0.55551046 -0.34118882 -0.2536579 0.5423034
-0.266955 -0.40803462 -0.13202368 0.6417715 0.0238571 0.545432 0.2935062 -0.050378677
0.339163 -0.17394581 0.18399966 -0.35341662 -0.31661776 -0.6830697 -0.047082867 -0.43567303
-0.43674088 -0.3731947 0.26920533 0.27306154 1.0387177 0.4115347 0.49003896 0.2674945
0.7620501 0.32225928 0.22141407 -0.19756846 0.6347203 -0.48416027 1.2003163 0.25527385
-0.033625156 0.13737127 0.24074209 0.18707916 0.0787032 0.12428564 0.9989871 0.5885576
-0.2122067 -0.24702823 1.403854 0.04907004 -1.3439698 1.0373014 0.14308935 -0.113524705
0.37162992 0.97935706 0.6884039 0.24419303 0.37819737 0.552537 0.30600658 -0.19973457
0.021605209 0.03218703 0.4133343 0.308797 -0.52733415 -0.004430034 0.55415386 -0.7929742
0.2228351 -0.7172482 0.4202509 0.59472126 -0.21311341 0.8192886 0.025684701 -0.47834262
-0.56757736 -0.64238554 -0.32113826 0.8618644 -1.3729312 -0.19463423 0.23360233 -0.78413945
-0.540966 -0.08932581 -1.053811 0.87510175 0.009908161 -0.36641282 -0.8208513 0.64367944
-0.56114835 0.9161832 -0.20023102 0.8308047 0.49771664 0.6483247 0.16868934 -0.33465677
0.71586657 0.37263724 -0.5688258 0.9564537 -1.0485529 -0.24365118 0.05569927 0.29413587
-0.47141403 0.18557142 -0.13665456 0.41734293 -0.37996855 0.6142308 -0.025417548 -1.06703
-0.80966496 -1.1681471 -0.12664239 -0.17271888 -0.17732917 0.3698984 0.36136088 0.89743984
0.046567705 -0.36683014 -0.6766878 -0.36277184 -0.8324721 0.25889593 0.87045276 0.8839966
-0.48476925 -1.7877917 -0.1395115 -0.36784676 0.13148887 -0.24532919 0.8820544 -0.69548774
-0.19574346 0.5616183 -0.5234067 0.07917488 0.17980607 -0.7483448 -0.04492851 -0.19638517
-0.6579229 -0.59794307 0.9204935 0.18557484 -0.2807702 0.26288223 -0.16114949 0.30387303
0.2776825 0.62304324 0.47457984 -0.7856083 -0.6796512 0.057922237 -0.30038705 0.46593747
-0.37419868 0.64982134 -0.059366878 -0.42400098 -0.77586985 -0.25063124 -0.9119141 0.7382175
-0.43636706 1.1023651 -0.4108504 0.58178407 0.4068859 0.31034982 0.30167148 -0.07176215
00000000: 55f8 b1bd a020 1b3f 637d f53e eec8 df3d
00000010: 9510 8e3e d396 e63e c94f c83e 5833 9a3d
00000020: ef14 023f 107e 6f3e 37f7 033f 3a39 b3be
00000030: 10a9 96bf 97c6 b53f 9f14 e23d 5e4a 7b3f
00000040: 67e6 c03d d39c 9b3e bdbb 9e3e 8665 673e
00000050: bcb5 78bf 27c6 513f 4bbe bbbe 64b6 72bd
00000060: cd18 f6bd 6b2e b9be 198e 04be 24a9 003f
00000070: 9389 f8be e9c9 913d 7100 ce3e 072c 92bf
00000080: df65 d6be 97ae f03e ff28 473f 1d93 593e
00000090: 9c1f 8b3d efbf f03d b71d 75be 32ba a2bf
000000a0: 5533 29bf a1a6 2c3f 7d91 16bf ec24 053f
000000b0: 696e 63bd 72da 3fbe b663 ac3e 2972 e9be
000000c0: 4640 febe 6b28 483e 15d2 8bbe bb7a 07be
000000d0: 029e 14bf aad6 063f e757 1e3f 3427 e43d
000000e0: b478 3e3e d76e 01be 4e8d f23e 1fee a63e
000000f0: 6270 d3be d939 803f 09ae aebe c86f 8dbe
00000100: 104e 333d 4621 7fbd bd33 51bf f6e8 09c0
00000110: f12d e3bf 60fb efbe 5e46 47be beac cf3e
00000120: 6b39 013f 1529 98be b3bc 48be 01dd adbe
00000130: ef35 0ebf 4db0 aebe 73df 81be 65d4 0a3f
00000140: 53ae 88be eae9 d0be 3731 07be 234b 243f
00000150: f76f c33c 6ea1 0b3f 7246 963e df59 4ebd
00000160: c6a6 ad3e da1e 32be 686a 3c3e 06f3 b4be
00000170: b91b a2be a8dd 2ebf f7d9 40bd 8910 dfbe
00000180: 809c dfbe 6013 bfbe 48d5 893e b9ce 8b3e
00000190: b4f4 843f adb4 d23e 63e6 fa3e 0af5 883e
000001a0: b715 433f 2bff a43e 5fba 623e 634f 4abe
000001b0: 087d 223f dbe3 f7be f7a3 993f 41b3 823e
000001c0: 88ba 09bd 0eab 0c3e 1885 763e ae91 3f3e
000001d0: 252f a13d 7889 fe3d 9ebd 7f3f b6ab 163f
000001e0: b74c 59be f8f4 7cbe 7db1 b33f abfd 483d
000001f0: 3407 acbf 4bc6 843f 0486 123e a47f e8bd
00000200: 4746 be3e 25b7 7a3f 3d3b 303f bd0d 7a3e
00000210: 16a3 c13e 1173 0d3f e5ac 9c3e 3887 4cbe
00000220: 68fd b03c 8cd6 033d 8ea0 d33e a41a 9e3e
00000230: 5fff 06bf d229 91bb 07dd 0d3f 5b00 4bbf
00000240: e22e 643e 949d 37bf 202b d73e a73f 183f
00000250: 673a 5abe e6bc 513f b968 d23c 53e9 f4be
00000260: c04c 11bf 6173 24bf 3c6c a4be 25a3 5c3f
00000270: 36bc afbf 324e 47be 7335 6f3e 5dbd 48bf
00000280: bf7c 0abf 73f0 b6bd 47e3 86bf ab06 603f
00000290: d755 223c 769a bbbe 5023 52bf 2dc8 243f
000002a0: 6ba7 0fbf fb8a 6a3f 5c09 4dbe 9eaf 543f
000002b0: b7d4 fe3e 9cf8 253f e6bc 2c3e 2258 abbe
000002c0: 0843 373f 4fca be3e 919e 11bf 26da 743f
000002d0: fb36 86bf b27f 79be eb24 643d fa98 963e
000002e0: 2e5d f1be 6f06 3e3e 2cef 0bbe f9ad d53e
000002f0: 3d8b c2be 3b3e 1d3f 7638 d0bc 7094 88bf
00000300: 3446 4fbf d885 95bf 8bae 01be 38dd 30be
00000310: c795 35be 5363 bd3e 4b04 b93e 9ebe 653f
00000320: c7bd 3e3d 29d1 bbbe 693b 2dbf 3bbd b9be
00000330: e41c 55bf 028e 843e fed5 5e3f 9a4d 623f
00000340: ad33 f8be 5cd6 e4bf 1adc 0ebe 6956 bcbe
00000350: 05a5 063e 9337 7bbe 51ce 613f 7c0b 32bf
00000360: f970 48be 38c6 0f3f fbfd 05bf 7126 a23d
00000370: 151f 383e 8693 3fbf f506 38bd 3219 49be
00000380: a36d 28bf cc12 19bf 76a5 6b3f 5507 3e3e
00000390: 1dc1 8fbe 8098 863e 5f04 25be 3f95 9b3e
000003a0: 672c 8e3e c37f 1f3f 21fc f23e a01d 49bf
000003b0: 9ffd 2dbf de3f 6d3d 55cc 99be 5b8f ee3e
000003c0: f896 bfbe b15a 263f af2a 73bd a816 d9be
000003d0: 689f 46bf bd52 80be 3473 69bf d2fb 3c3f
000003e0: 816b dfbe 4d1a 8d3f fc5a d2be cdef 143f
000003f0: 5953 d03e 2ce6 9e3e af74 9a3e 09f8 92bd

lstm.bias_ih_l1 f4 [112]
-0.920631 -0.43736315 -0.6739572 -0.4419937 -0.41299868 -0.41351023 -0.34710518 -1.0568664
-0.6373726 -0.42490977 -1.0516758 -0.1967525 -0.12152657 -0.6612925 -0.23420116 -0.36224073
-0.5334041 -0.010206887 -0.6988973 -0.10223515 -0.32969946 -0.3831603 -0.10557266 -0.31084365
-0.034415428 -0.54123306 -0.6405325 -0.39319283 0.36463624 0.23832184 -0.04300519 -0.4908243
0.65593857 -0.8010817 -0.39532262 -0.47882393 0.41227528 0.2624253 0.08611901 -0.6436165
-0.30638877 -0.19177322 0.15302198 -0.028229635 0.27837744 -0.1518603 -0.8330232 0.2879356
0.019665552 0.4373575 0.25173587 -0.041317396 0.21230787 -0.021036997 0.029387368 -0.88812923
-0.010432683 -0.043534636 -0.16528931 0.056631528 -0.03236234 0.15975706 0.15166263 -0.12769385
-0.11828278 0.1283409 -0.04392605 0.3100445 0.34236073 -0.16283907 -0.13611437 -0.17254949
0.11384702 -0.21992314 -0.15285078 0.19885783 0.05335987 0.1766569 0.16378468 -0.015187458
0.009696297 0.049892716 0.0013038835 -0.010268912 -0.4126527 0.071916126 -0.09789828 -0.08487238
-0.11938898 -0.39511082 -0.28229412 -0.39257303 -0.23824786 -0.04760563 -0.4449508 0.31066805
-0.22077298 -0.41662437 -0.104598634 -0.12223193 0.04727875 -0.41436687 -0.52699566 -0.48099095
0.01490631 0.33578283 0.10627352 0.072092496 0.5360009 -0.59329456 -0.14452656 -0.5427148
00000000: 79ae 6bbf 10ee dfbe 7688 2cbf 004d e2be
00000010: 9074 d3be 9db7 d3be c5b7 b1be 6647 87bf
00000020: da2a 23bf c68d d9be 509d 86bf 7d79 49be
00000030: ece2 f8bd 774a 29bf 6ed2 6fbe 9e77 b9be
00000040: 2c8d 08bf c93a 27bc efea 32bf aa60 d1bd
00000050: 5ece a8be 962d c4be 7b36 d8bd e626 9fbe
00000060: 31f7 0cbd 408e 0abf f0f9 23bf 9250 c9be
00000070: 9ab1 ba3e a40a 743e 3626 30bd 534d fbbe
00000080: 97eb 273f b113 4dbf ba67 cabe 6928 f5be
00000090: bf15 d33e 9c5c 863e 2a5f b03d 0dc4 24bf
000000a0: fdde 9cbe 3360 44be cbb1 1c3e d641 e7bc
000000b0: 7d87 8e3e 4481 1bbe 0241 55bf 4c6c 933e
000000c0: a719 a13c 52ed df3e 86e3 803e 6e3c 29bd
000000d0: 3c67 593e c855 acbc c7bd f03c 705c 63bf
000000e0: d8ed 2abc 6051 32bd 9a41 29be 76f6 673d
000000f0: 5f8e 04bd 5b97 233e 734d 1b3e 2dc2 02be
00000100: 3e3e f2bd cc6b 033e cdeb 33bd 27be 9e3e
00000110: e849 af3e 49bf 26be 9161 0bbe d0b0 30be
00000120: a028 e93d 8833 61be ea84 1cbe 63a1 4b3e
00000130: e18f 5a3d 8ce5 343e 2cb7 273e d1d4 78bc
00000140: 38dd 1e3c 4e5c 4c3d 12e7 aa3a f03e 28bc
00000150: 3747 d3be c348 933d e57e c8bd 92d1 adbd
00000160: 3682 f4bd f74b cabe db88 90be 55ff c8be
00000170: 3ff7 73be 1ffe 42bd 97d0 e3be e20f 9f3e
00000180: 5012 62be ca4f d5be cf37 d6bd bc54 fabd
00000190: 5da7 413d e527 d4be 30e9 06bf 7244 f6be
000001a0: 9839 743c baeb ab3e eea5 d93d 3ba5 933d
000001b0: 5b37 093f 27e2 17bf c5fe 13be 5bef 0abf

lstm.bias_hh_l1 f4 [112]
-0.6817942 -0.417124 -0.6707004 -0.14688522 -0.52608246 -0.45364428 -0.42160007 -1.0971859
-0.7250235 -0.6018039 -1.2230905 -0.4841148 -0.113418005 -0.5135746 -0.14690703 -0.20297655
-0.52908045 -0.15286592 -0.6683464 -0.19670835 -0.5842061 -0.61081773 -0.08274377 -0.29328072
-0.019180685 -0.35377315 -0.34383377 -0.5245157 0.37446523 0.29983735 0.08609542 -0.33746335
0.51393646 -0.78725916 -0.11382333 -0.5249446 0.17364669 0.34419933 0.09742165 -0.7979843
-0.101141736 -0.19327281 0.071621835 0.2484116 0.46749246 -0.22803076 -0.76469857 0.24677968
0.0708348 0.6052707 0.43591437 -0.076459244 0.13284804 0.03955651 0.176052 -0.9997375
0.14213008 -0.1763246 -0.039432004 -0.13979967 -0.114333935 -0.023292113 0.23878995 0.08632894
0.053788833 -0.11899024 0.12242747 0.37910637 0.088840015 0.030868696 0.08982104 0.019704672
0.08868769 -0.22419703 -0.091684565 0.20020966 0.21518347 0.134029 0.45315433 0.17331052
0.10498464 0.011590052 0.03776555 -0.3258448 -0.53997505 -0.022228366 -0.14285792 -0.23356846
-0.2030328 -0.114254504 -0.24666044 -0.374745 -0.45759743 0.13263987 -0.53934926 0.09990084
-0.41578463 -0.5167208 -0.11447649 -0.24110453 -0.052368898 -0.5654018 -0.7092992 -0.485608
-0.028380197 0.34526446 0.029775834 -0.15780927 0.63026357 -0.462162 -0.24166214 -0.59981513
00000000: 118a 2ebf 4791 d5be 05b3 2bbf 1469 16be
00000010: 57ad 06bf 1044 e8be f7db d7be 9670 8cbf
00000020: 249b 39bf d20f 1abf 3b8e 9cbf e5dd f7be
00000030: b347 e8bd a079 03bf cc6e 16be 16d9 4fbe
00000040: d171 07bf e288 1cbe c018 2bbf ea6d 49be
00000050: 888e 15bf 8d5e 1cbf 9175 a9bd e428 96be
00000060: d020 9dbc c121 b5be fb0a b0be a946 06bf
00000070: e8b9 bf3e 4884 993e cc52 b03d ffc7 acbe
00000080: 5791 033f d189 49bf 351c e9bd c562 06bf
00000090: 70d0 313e e53a b03e 0185 c73d b348 4cbf
000000a0: 6623 cfbd 4fe9 45be 78ae 923d 9c5f 7e3e
000000b0: 2c5b ef3e e580 69be 49c3 43bf d0b3 7c3e
000000c0: d611 913d 05f3 1a3f 2b30 df3e aa96 9cbd
000000d0: 5109 083e 0206 223d fa46 343e ccee 7fbf
000000e0: 8c8a 113e 708e 34be 7483 21bd a527 0fbe
000000f0: e927 eabd 1acf bebc 5a85 743e 3acd b03d
00000100: ae51 5c3d 28b1 f3bd 41bb fa3d 3b1a c23e
00000110: c1f1 b53d 59e0 fc3c 18f4 b73d b16b a13c
00000120: e4a1 b53d e893 65be 1ec5 bbbd c303 4d3e
00000130: 0e59 5c3e e63e 093e d803 e83e 5078 313e
00000140: 3002 d73d 34e4 3d3c 0db0 1a3d 21d5 a6be
00000150: ce3b 0abf 4318 b6bc 5949 12be 922c 6fbe
00000160: d5e7 4fbe 44fe e9bd 8e94 7cbe 94de bfbe
00000170: 364a eabe bfd2 073e cb12 0abf d098 cc3d
00000180: b9e1 d4be d047 04bf a672 eabd 1be4 76be
00000190: c580 56bd 2cbe 10bf a294 35bf 9da1 f8be
000001a0: 967d e8bc 81c6 b03e 73ec f33c c198 21be
000001b0: f458 213f 7fa0 ecbe 4876 77be 7c8d 19bf

fc.weight f4 [2, 28]
0.7376806 0.6104693 -0.91047466 -0.77872705 0.30677244 -1.0681926 -0.10852152 1.4007372
-0.5359533 -0.45801666 1.1708986 1.0390341 0.73248225 -0.09806376 0.62877494 -0.6521927
0.82292694 -0.9925187 0.5643865 0.64162874 0.6767458 0.63504714 0.82800865 -0.75747937
0.9757695 0.4793785 0.59641004 -1.1211585 -0.42734984 0.47945753 0.0027469322 -0.048667103
-0.7693907 0.17916426 0.29488236 0.19103888 0.4848697 -0.6772615 -0.21344271 -0.08435724
0.18335484 0.45135042 -0.627199 -0.014918942 0.02710399 0.041548673 0.11178635 0.24939907
-0.13847777 -0.49674278 0.0021338693 -0.09637192 -0.2069243 0.29645893 0.34832016 0.017986497
00000000: a3d8 3c3f b747 1c3f de14 69bf a85a 47bf
00000010: 4711 9d3e 89ba 88bf 8840 debd 5b4b b33f
00000020: 3c34 09bf 2981 eabe 01e0 953f 12ff 843f
00000030: f583 3b3f a7d5 c8bd 65f7 203f 1af6 26bf
00000040: 57ab 523f b515 7ebf a27b 103f c841 243f
00000050: 363f 2d3f 7392 223f 60f8 533f 2bea 41bf
00000060: 08cc 793f 1971 f53e 54ae 183f 1f82 8fbf
00000070: 99cd dabe 757b f53e e005 343b 2857 47bd
00000080: caf6 44bf d676 373e d2fa 963e b29f 433e
00000090: d740 f83e 0261 2dbf ba90 5abe 7dc3 acbd
000000a0: 5fc1 3b3e 6717 e73e 1d90 20bf 946e 74bc
000000b0: 3009 de3c f12e 2a3d 3ef0 e43d 7862 7f3e
000000c0: 1ecd 0dbe 1255 febe 63d8 0b3b a45e c5bd
000000d0: f7e3 53be 77c9 973e 0557 b23e 6b58 933c

fc.bias f4 [2]
0.49920997 -0.3052453
00000000: 7398 ff3e 1d49 9cbe
