trained_parameters/l_LSTM_airpollution.pt (torch, 28896 bytes, 10 tensors)

lstm.weight_ih_l0 f4 [80, 14]
000000 db c1 12 bf 09 af e2 3e e5 fb 7b bf cd 9d 09 bf
       -0.5732705 0.44274166 -0.98431236 -0.5375641
000010 60 58 42 bf a5 9c 6e be a1 82 ea bf 43 e8 f9 be
       -0.759161 -0.23301943 -1.8321115 -0.48810014
000020 3a 02 fd 3e be e0 16 3e 49 74 b5 be da f1 94 3e
       0.4941576 0.1473417 -0.3544028 0.29090768
000030 60 41 20 bf 6d fb 8a be 3b ff a4 be ed bb 5b 3f
       -0.62599754 -0.27144948 -0.32225975 0.85833627
000040 4c 23 2c bf de 75 a1 3f ac 9f 69 bf f2 a1 2f 3e
       -0.6724136 1.2614095 -0.91259265 0.17151621
000050 36 3e 2c c0 f5 87 ff be 16 b7 c2 3e 6a e1 d3 be
       -2.691297 -0.49908414 0.38030308 -0.41382915
000060 28 ff 01 3e 3c 03 29 bf 22 a5 c3 3f c3 28 a2 bf
       0.1269499 -0.6602056 1.528477 -1.266869
000070 e7 2c 63 be bb ad 3b be 36 3c d5 bd c0 ba eb be
       -0.22185098 -0.18327992 -0.10411875 -0.46040916
000080 78 ce 83 be 2f ff 60 3e d9 f4 88 3f 6c bf 25 bf
       -0.2574346 0.21972345 1.0699722 -0.6474521
000090 93 8e a5 be f6 6f 22 bc 32 72 9f 3d 4e f5 23 be
       -0.32335338 -0.009914389 0.07785453 -0.16011545
0000a0 e7 2c 99 bf 0f 23 9b 3e 85 54 84 bf 83 62 d1 bf
       -1.1966828 0.30300185 -1.0338293 -1.6358188
0000b0 44 65 ca be 9e 7f 37 bf d4 43 0b 40 fc 4f 34 bf
       -0.39530385 -0.71679103 2.176015 -0.70434546
0000c0 ad 7c aa bf cd 8a 0a be 06 1f f6 3e a5 23 73 bf
       -1.3319298 -0.13529511 0.48070544 -0.94976264
0000d0 7b 2c a8 be de e2 87 3f ba 2e 59 bf 14 a5 21 c0
       -0.32846436 1.0616109 -0.84836924 -2.5257006
0000e0 d1 45 b7 bd 7f 9a e2 3e 6f 2b 04 3f a8 6d 07 be
       -0.08948863 0.44258496 0.51628774 -0.13225424
0000f0 31 2a 9c 3f 0c db 58 bf 25 e8 a6 bf 69 aa 70 3e
       1.2200376 -0.8470924 -1.3039595 0.23502506
000100 de 5a 15 bf 5e a2 e2 bc f6 c8 a7 3d 07 c9 9a be
       -0.5834178 -0.027665313 0.08192627 -0.30231497
000110 93 b7 53 3e 5c fc b9 be 8a d9 0a be 1f 30 64 bf
       0.20675497 -0.36325347 -0.13559547 -0.89135927
000120 5d 83 e9 be d2 29 10 be cd 2a c1 3f 39 70 6d bf
       -0.45608035 -0.14078453 1.5091187 -0.92749363
000130 5d 1f b8 be 9c 76 ae bc 87 7e 0c 3f f9 e2 ab bf
       -0.35961428 -0.021296792 0.54880565 -1.3428642
000140 ea ec 75 bf 30 74 64 3f c6 4a 9c 3d 05 0f 8a c0
       -0.9606463 0.8923979 0.076314494 -4.3143334
000150 f5 b9 44 bf ec 83 15 bf 3a 73 e8 3e e7 48 36 bf
       -0.7684625 -0.5840442 0.4540041 -0.7120499
000160 20 a3 ca 3f 2c b6 c2 bf 6a ff 95 bf 50 0a 8c be
       1.5831032 -1.5211844 -1.1718571 -0.27351618
000170 51 5b 16 bf 7c 9e b3 bf 97 3d b6 bf 9b 46 f2 3e
       -0.5873309 -1.403274 -1.4237546 0.47319493
000180 86 57 1a 3f 06 a4 db 3f 0c 1e 5a 3e 3f 40 57 3f
       0.602898 1.7159431 0.21300524 0.84082407
000190 de 14 3e 3f b2 63 45 3f 34 ba 59 bf cd 17 a2 3f
       0.7425059 0.7710525 -0.8504975 1.2663513
0001a0 2a b1 a6 be d1 90 8a be 4c 18 b2 be 89 50 32 bf
       -0.3255704 -0.2706361 -0.34784162 -0.69654137
0001b0 66 65 3c be c8 36 f6 be c2 c5 38 bf db 26 ff be
       -0.18398055 -0.4808867 -0.72176754 -0.49834332
0001c0 9c 5e 1e be 5e cc ec be 22 93 d9 be 4e bf fe 3d
       -0.15465778 -0.4624967 -0.42495066 0.12438832
0001d0 d3 d7 4c c0 56 0f 89 be c0 a4 20 3f b0 b4 e8 be
       -3.2006729 -0.26769513 0.6275139 -0.45450354
0001e0 e8 2d a4 bd e4 f1 6d 3e 9c f5 12 3f 99 d9 45 bf
       -0.080165684 0.23236805 0.5740602 -0.7728515
0001f0 31 d5 40 3f 39 b1 ee bf 0f 8c 7b be e1 ac bb bd
       0.75325304 -1.8647834 -0.24565147 -0.091638334
000200 cb 15 05 bd 27 bd d7 bc 4d ed 39 3f 41 df 54 3e
       -0.032491487 -0.026335312 0.7262772 0.2078829
000210 bc 2c 42 3f 45 cc 4a 3e f9 a0 a9 3e 2f ce 24 3e
       0.7584951 0.19804485 0.33130625 0.16094278
000220 87 09 36 be d1 49 b4 be 6c 5d 18 bf 11 86 d8 3e
       -0.17777072 -0.35212567 -0.5951755 0.42289785
000230 9c fe 84 bd ef 21 06 3f d1 33 24 be 82 da f2 3e
       -0.064938754 0.5239553 -0.16035391 0.47432333
000240 6b e0 9a 3e 7f eb a3 be 6e 1e 86 3f c7 e4 06 bf
       0.30249342 -0.32015607 1.0478036 -0.52692837
000250 f6 27 92 3e 2b 3a 47 3e 27 65 ae be 3f b9 c1 bf
       0.28546113 0.19455783 -0.34061548 -1.5134658
000260 73 b6 a6 bf c7 ea bc 3e a3 a1 61 3e 49 40 ae bd
       -1.3024429 0.3689787 0.22034316 -0.08508355
000270 64 d4 58 3e a3 d7 16 c0 8c ed 5d 3f a9 3d 24 bf
       0.2117477 -2.3569114 0.8669059 -0.64156586
000280 7d 2f a6 3f c2 bd c8 3e 6d b7 c9 3c 72 d0 b8 bd
       1.2983242 0.39207274 0.024623597 -0.09024133
000290 2f 68 4d 3f c4 20 70 bf bb 54 14 3f 4e 5d be c0
       0.80237097 -0.93799996 0.5794179 -5.9488897
0002a0 b9 f1 0a be 6b 02 23 bf 5a 47 28 3f ae d5 c7 bf
       -0.13568772 -0.63675565 0.65733874 -1.5612085
0002b0 7d 43 bf 3f b6 71 97 bf 79 1e d3 bf d4 be 81 be
       1.4942471 -1.1831577 -1.6493675 -0.25340903
0002c0 fe 5d 22 bd 9d 4c 6b bf 84 6a 57 bf b8 5e 81 bf
       -0.03964042 -0.9191378 -0.84146905 -1.0107031
0002d0 4f be a7 bf 9f f7 7c bf ed 63 c7 3e 70 41 0d bf
       -1.3104953 -0.9881534 0.38943425 -0.55177975
0002e0 09 88 f8 bc 35 eb 8e bd 5f 20 c4 3f 31 77 25 3e
       -0.030338304 -0.06978456 1.5322379 0.16158749
0002f0 e2 a3 78 3f cd 4d f1 be 18 7b 3c be bb b3 97 bd
       0.97125065 -0.4712967 -0.18406332 -0.07407328
000300 5d b8 d7 be 95 86 a0 3f 3b aa bb 3f 90 7b 11 3f
       -0.42132846 1.2541071 1.4661325 0.56829166
000310 84 30 69 bf fa e5 66 bf f9 e7 b8 bf ce fe 6c be
       -0.91089654 -0.90194666 -1.4445792 -0.23144075
000320 75 c1 33 3f 26 9a 22 bf 46 87 96 3f d9 15 92 be
       0.70217067 -0.6351646 1.1760032 -0.28532293
000330 6a 19 7d 3e d5 e5 07 be 9d f2 ec be a2 b1 93 bf
       0.24716726 -0.13271268 -0.4627885 -1.1538584
000340 1e 23 05 c0 6f 1f 12 3f 33 a5 d7 3e c1 c2 a7 3d
       -2.0802684 0.57079214 0.42118225 0.08191443
000350 fc 77 1b bf 74 35 ae 3c 6c 0e 4a 3f 78 01 f2 bd
       -0.60729957 0.021265723 0.78928256 -0.118166864
000360 eb 6f be 3f e3 1a 01 3f 7f f6 54 be 26 60 a5 be
       1.4877905 0.5043165 -0.20797156 -0.32299918
000370 cb 84 47 bd bc 70 55 3f 5a ce 60 3f 92 78 e5 3f
       -0.048710626 0.83375144 0.8781487 1.792742
000380 20 27 eb bf 51 7a ce bd 26 ab 52 3f 6d 0a cd be
       -1.8371315 -0.10081924 0.822924 -0.40047017
000390 57 7d 20 c0 af 17 fa be b8 7e 8a bf b2 42 04 bf
       -2.5076501 -0.48846194 -1.0819921 -0.5166427
0003a0 bc 7e 39 be ab c9 aa bf 0f 2b 20 bf e6 4a 33 3e
       -0.18114752 -1.3342794 -0.625657 0.1750904
0003b0 c8 8a f3 3f 8a 6a 9c 3e b2 c5 16 bc e4 51 a7 be
       1.9026728 0.30550033 -0.009202408 -0.32679665
0003c0 88 28 d0 3f e6 6f 8b 3e ec a7 52 3f 5b 81 87 bf
       1.6262369 0.2723381 0.8228748 -1.0586351
0003d0 85 69 96 3f 28 4e ca 3e cc 18 dc 3d 8e 38 49 be
       1.1750952 0.39512753 0.10746917 -0.1965048
0003e0 40 8d dd bc 40 20 6f bf a9 ac e4 bf 9b 7d 66 bf
       -0.027044892 -0.93408585 -1.7865192 -0.9003541
0003f0 fc ed a8 be f3 5b a4 bf c1 af 00 40 9e f2 21 bf
       -0.32994068 -1.2840561 2.0107272 -0.6326083

lstm.weight_hh_l0 f4 [80, 20]
000000 c4 a3 39 be a0 a5 94 3f 47 1e 53 3f ea 64 8c bf
       -0.18128878 1.1613045 0.82468075 -1.0968297
000010 50 98 80 be 23 fc 4d 3e 65 1b 15 bf 89 f0 b2 bf
       -0.25116205 0.20115714 -0.58244926 -1.3979656
000020 9e 8b 9e 3f 28 db 91 3e 29 d0 84 bf a6 f2 d8 3f
       1.2386358 0.28487515 -1.0376025 1.694905
000030 89 ce 32 3f 6e e2 ef 3f 3c 67 2c c0 9a 4f 77 3e
       0.698464 1.8740976 -2.693801 0.2415146
000040 ef 35 b4 3f 86 d0 17 3d 83 d5 35 3f 89 4d 95 be
       1.4078959 0.037064098 0.7102892 -0.29160717
000050 d0 de ca 3f f1 7c ce 3e 03 56 45 bf be 40 f0 3d
       1.5849247 0.40329698 -0.7708437 0.117310986
000060 9c f6 b2 3e 68 8d e6 be fd ea 97 bf e7 98 18 be
       0.34953773 -0.4502976 -1.1868588 -0.14902078
000070 bd d8 84 3f 34 c6 12 bf 4e 63 e7 bf 28 83 4d 3e
       1.0378643 -0.57333684 -1.807718 0.20069563
000080 f8 6e 84 3f ef f1 de 3e 99 57 ab bf a2 6d 39 bf
       1.0346365 0.43543956 -1.3386108 -0.7243291
000090 fc 7c aa 3f 4d 48 14 c0 59 5e 34 bf 7b 42 fe be
       1.3319392 -2.316913 -0.70456463 -0.49660096
0000a0 ee 8d 68 bf 8c 1d 9b 3f 89 56 50 bf 9d ff c1 be
       -0.9084157 1.2118392 -0.8138204 -0.3789033
0000b0 cf c2 c3 be bf fe 99 3f d8 9b 0a 3f f5 24 c6 3b
       -0.38234565 1.2030867 0.5414405 0.006046886
0000c0 c2 94 3d 3e e6 f7 aa 3e e8 6a d2 be 5a 68 5c be
       0.18513778 0.33392256 -0.41097188 -0.21524182
0000d0 c1 e6 23 3f 28 13 d3 3d de f3 bf be bb b9 0d 3f
       0.6402398 0.10306388 -0.37490743 0.5536153
0000e0 7e 55 1f bf a1 6a 73 3e 6d 2a 3a 3e 26 7f 1c 3f
       -0.62239826 0.23771144 0.18180247 0.61131513
0000f0 fb 00 9f be 52 bc 25 bc 07 bc 29 3f 7a 21 0c bf
       -0.31055436 -0.0101157 0.6630253 -0.5473858
000100 66 52 03 3d cd b7 e1 3d 9a 36 a6 3e 8e 46 84 bf
       0.032061003 0.11021385 0.32463533 -1.0334032
000110 aa 2b 7d 3f b8 e8 a7 be a8 55 39 bf 09 4c 05 40
       0.9889475 -0.32794738 -0.72396326 2.0827658
000120 36 0e 1b c0 32 50 70 3e 89 8a 08 be 32 6d b4 bf
       -2.4227424 0.23468092 -0.13334097 -1.4095824
000130 b1 2c a8 3e 03 6b 03 c0 76 6e 62 bf aa 38 52 be
       0.32846597 -2.0534065 -0.884498 -0.20529428
000140 14 b3 e5 3d 21 d1 33 be 85 8e 76 3f 1d 28 a8 3f
       0.11215797 -0.17560245 0.9631122 1.3137242
000150 3e 0b f9 be 93 f3 d7 bf f8 5c 88 bd 58 a2 ea 3e
       -0.4864139 -1.6871208 -0.066583574 0.45826983
000160 45 85 96 be 85 72 84 3e 2d e4 2a 40 f3 ec 91 be
       -0.29398552 0.2586862 2.6701767 -0.2850109
000170 50 b3 42 bf 01 65 36 3f 9a 54 d2 bc 64 61 cc be
       -0.7605486 0.7124787 -0.025675107 -0.39918053
000180 9b 34 64 be d9 36 30 bf ae 05 95 bc 92 e0 b6 3f
       -0.22285692 -0.6883369 -0.018191185 1.4287283
000190 db 86 e0 3e 17 19 48 bf d6 e4 3f 3f 83 85 cb be
       0.43852887 -0.78163284 0.7495855 -0.397503
0001a0 2e 95 2d 3f 1f 12 a4 be 0e ba 1f 3f b2 85 04 bf
       0.67805755 -0.32045075 0.6239327 -0.517665
0001b0 5c 89 a0 3f 0d 69 e4 bc 5b 11 ee bf 84 77 00 40
       1.2541919 -0.027882123 -1.8599046 2.0072947
0001c0 54 30 3d bf 63 aa d9 3e e0 c3 92 bd 0e 43 14 3e
       -0.7390187 0.42512807 -0.071662664 0.14478704
0001d0 bb fb 3b be 6f d2 ff be 27 d8 03 3f bf 94 5d 3e
       -0.18357746 -0.49965236 0.515017 0.21638773
0001e0 42 be af bf df f1 09 3f 78 f4 29 3e 4b cc 0f 40
       -1.3729937 0.5388469 0.16597164 2.246844
0001f0 a6 99 60 bf dd 19 47 3e 8e 73 51 bf a1 6c 04 bf
       -0.8773445 0.1944346 -0.8181695 -0.51728255
000200 10 cb 09 40 e4 2b 57 3e 8e cb 00 40 0f a8 09 bf
       2.153019 0.21012837 2.012424 -0.5377206
000210 dd b7 85 3d ac db e6 3d 61 fb 38 bf 7f 03 00 c0
       0.0652921 0.11272368 -0.72258574 -2.0002134
000220 0a 04 1b be 90 eb 22 bf 1a 74 81 3f 7d 55 23 bf
       -0.1513826 -0.6364069 1.0113556 -0.6380232
000230 34 a0 15 40 c7 d4 89 bf c9 08 0a 3d e6 81 02 40
       2.337903 -1.076806 0.033699784 2.0391784
000240 2c 70 35 bf 63 a3 03 c0 36 da 0e be 8f bc 06 bf
       -0.70874286 -2.0568473 -0.13950428 -0.5263147
000250 f7 37 0d 40 25 3f 2d bd 91 1c 49 3f a6 8f 15 3c
       2.2065408 -0.042296547 0.78559214 0.009128487
000260 9d 59 86 bf 72 1c 21 3f ff 84 05 be 79 6e 35 bf
       -1.0496098 0.6293403 -0.13039015 -0.7087169
000270 23 33 78 40 56 22 a1 be a0 c1 b2 3f 35 f3 63 bf
       3.8781211 -0.3147151 1.396534 -0.8904298
000280 96 4f 03 3e 08 0b 1c 40 82 43 fa be 39 18 1e c0
       0.12823328 2.4381733 -0.4887963 -2.4702284
000290 40 a1 85 be 1a 61 da bf ea fd 8f be 91 42 be be
       -0.26099586 -1.7060883 -0.2812341 -0.3716016
0002a0 11 ff 24 bc 39 74 39 3e a6 18 35 3f 5d 2d d5 3d
       -0.010070578 0.18110742 0.70740736 0.10409043
0002b0 92 c5 65 c0 4f 05 38 3d e8 58 dd 3e b0 2e 5b be
       -3.5901837 0.044926938 0.43231893 -0.21404529
0002c0 5a 5d c2 3f 41 31 b5 3e 3e bc a1 bf 9a 2e 01 3f
       1.5184739 0.3538914 -1.2635572 0.50461733
0002d0 80 66 cd 3f 7e b6 52 be 2a 81 37 3e 6c 70 09 3f
       1.6046906 -0.20577428 0.17920366 0.5368717
0002e0 76 19 0f bf 0c b3 9a bf da e2 29 bd a9 de 14 3f
       -0.55898225 -1.2085891 -0.041476108 0.5815225
0002f0 4e 18 a7 3b 2e 5f 6c 3d 80 cb e8 3e e1 60 a1 3e
       0.005099333 0.057707958 0.45467758 0.31519225
000300 36 13 11 3e 31 3b 2a be 44 f0 82 bf 5f 93 68 bc
       0.14167485 -0.16624142 -1.0229573 -0.014195292
000310 96 aa e4 3e 56 ef bb 3e 13 84 d5 3f 73 4c 27 bf
       0.44661397 0.36706036 1.6680931 -0.6535103
000320 e4 c8 75 bf 85 85 b8 3f 37 c2 d0 be 8d b0 89 bf
       -0.9600966 1.4415747 -0.40773174 -1.0757004
000330 e7 3c 1e bf 26 ce 02 c0 02 67 00 c0 ea a2 8c bf
       -0.6181168 -2.0438323 -2.006287 -1.0987217
000340 99 2a 21 3f 8c dd b5 3e f1 75 2a 3f 74 1f 91 3f
       0.62955624 0.3552059 0.66586214 1.1337724
000350 30 b8 e7 bf e9 58 d2 bd fe ba 11 bf 99 9a 21 be
       -1.8103085 -0.102708645 -0.5692595 -0.1578163
000360 5e 7a 54 bf f9 6e b3 bd b2 e0 0a 3f 74 2c c9 3e
       -0.8299922 -0.08761401 0.5424911 0.39291728
000370 d4 f6 4b c0 57 cb 92 40 20 72 c1 3b 73 aa b2 be
       -3.1869402 4.5873218 0.0059034973 -0.34895667
000380 21 63 fc be 9f 05 eb be d3 9b 9f bd a9 36 c3 be
       -0.4929438 -0.45902726 -0.07793393 -0.3812764
000390 4b f9 b4 bf fd 3b d8 3d d7 19 9b bf 88 a9 c1 bf
       -1.4138578 0.10558317 -1.2117261 -1.5129862
0003a0 f9 e2 7c be b4 f2 3c 3f 03 9a e0 bd 78 b4 3d 3e
       -0.24695958 0.73807836 -0.109668754 0.18525875
0003b0 88 8f 14 bf 29 9e 6e 3f 66 cc 66 3e 61 df 5e 40
       -0.5803151 0.93210083 0.2253891 3.482384
0003c0 e7 e6 b8 be 27 9c 74 bf 0a 4c d4 3f 71 81 c5 3f
       -0.36113665 -0.9555077 1.6585705 1.5430127
0003d0 73 c9 9a 3f f1 b7 20 bf 9d cc 12 40 c5 3c 09 bd
       1.2092727 -0.6278067 2.2937386 -0.03350522
0003e0 b0 74 00 40 8a b1 15 3f fb d8 13 3f 9e 8d 2f 40
       2.007122 0.5847403 0.5775296 2.7430186
0003f0 ba 9c 5a bf 94 f2 aa 3e bb 05 0e 40 ff d7 52 be
       -0.85395396 0.33388197 2.2190998 -0.20590208

lstm.bias_ih_l0 f4 [80]
000000 ca 21 8c be ef 1e 08 bf d7 85 51 bf c6 70 95 be
       -0.2736953 -0.531722 -0.8184485 -0.29187602
000010 3c b7 05 3e 95 17 94 be 40 cc 20 be a1 b4 24 3e
       0.1305818 -0.28924242 -0.15702915 0.1608453
000020 d9 f7 85 3e c1 da 3f 3e d0 2c 64 bd cd 24 89 3e
       0.26165655 0.18735792 -0.0557068 0.2678589
000030 ff c4 9d 3b 6f 8e 68 bf 1f b3 03 bf 57 a6 93 3e
       0.0048147435 -0.90842336 -0.5144519 0.28837845
000040 17 42 5a be 9b e6 17 bf 10 52 2c 3c 5e c3 15 bf
       -0.21314274 -0.5933625 0.010517612 -0.5850123
000050 0c f0 67 bd e6 a9 4a 3f a2 90 cf bd 08 c0 bc be
       -0.05662541 0.79165494 -0.101350084 -0.36865258
000060 7c 01 bb bd 85 d3 13 3e 6a ed e3 3d 23 24 24 be
       -0.091311425 0.14436157 0.111292675 -0.1602941
000070 37 4f 5f bd 74 25 a4 be a5 2a 93 bc f3 23 11 3f
       -0.054518905 -0.32059824 -0.01796467 0.5669548
000080 70 9c 78 be 0e e5 d6 bd 1c 6d 6d be 8c 7e 5d be
       -0.24278426 -0.104929075 -0.23186153 -0.21630305
000090 86 49 99 3d c3 87 56 bf 10 ba 40 3f ed ba ad be
       0.074847266 -0.83800906 0.7528391 -0.33931676
0000a0 2f 88 b7 3d b5 04 bc be 57 91 c3 bd 24 f1 ab be
       0.08961522 -0.3672234 -0.09549206 -0.33582413
0000b0 59 38 7f be 63 33 11 be 46 37 f4 be a4 a3 c0 3d
       -0.24923839 -0.14179759 -0.4769842 0.09406212
0000c0 fb e8 de 3d d8 17 ef be de 66 01 3d 78 e8 4b bf
       0.10884281 -0.4669788 0.031592242 -0.79651594
0000d0 1c 5d 39 3f 9d 9e 03 bf 87 f8 8c 3b d7 a1 04 bf
       0.724077 -0.514139 0.0043020877 -0.5180945
0000e0 4d 1e 76 3e aa c4 cb be 97 4c 4f 3e 87 4f 98 3e
       0.24034996 -0.3979848 0.2024406 0.29748175
0000f0 c5 ad 53 bd 3e b7 64 be 08 07 52 3d eb 61 53 be
       -0.05167939 -0.22335526 0.051276237 -0.20642821
000100 c9 4d a5 bd 5a ab c2 be a8 a0 47 be e0 af 2a 3f
       -0.08071477 -0.38021356 -0.19494879 0.66674614
000110 f1 81 c5 3d 63 39 83 3e 46 02 b4 be e8 ee 39 3e
       0.09643925 0.2562972 -0.35157984 0.18157542
000120 92 44 53 3d c9 1f 9f 3d b8 24 00 bf 9f da 3a 3f
       0.051579066 0.077697344 -0.5005603 0.7298984
000130 c7 29 ee bd 40 d0 43 bf bc a3 2c be 01 37 0b bf
       -0.11629062 -0.7648964 -0.16859335 -0.54380804

lstm.bias_hh_l0 f4 [80]
000000 bc 04 7a be 72 d4 81 be 51 ed 23 bf 97 c1 04 bd
       -0.24415869 -0.25357395 -0.6403399 -0.032411184
000010 e6 5a 66 be ad e3 01 bf da 3b dd be d1 8f 4b 3e
       -0.22495613 -0.5073803 -0.43209726 0.1987908
000020 a5 e3 83 3e ef a2 8d bb d5 7c 79 b9 6c 05 c8 3e
       0.25759616 -0.0043224017 -0.00023792994 0.39066637
000030 f4 e0 62 3e 04 6f 69 bf b3 9c cb be 7f 80 2a 3f
       0.22156125 -0.9118502 -0.3976799 0.6660232
000040 69 90 d5 be e6 ca 09 bf e7 20 ca bd 62 a0 33 bf
       -0.4171174 -0.53825223 -0.09869557 -0.701666
000050 00 6d ff 3c 5b 8d 40 3f 47 20 d5 3d fa b5 8e be
       0.031179905 0.7521569 0.10406547 -0.27873212
000060 51 b1 cf 3d d7 d7 41 bd 7e 55 2e bd 12 08 05 3e
       0.10141242 -0.04732498 -0.042562 0.1299136
000070 a8 65 6b be df 21 ca be 10 66 1e 3e 21 a8 23 3f
       -0.22987998 -0.39478967 0.15468621 0.6392842
000080 c8 4f 90 be 47 d5 02 bc c5 2b 88 3d 09 31 bc 3d
       -0.28185868 -0.00798542 0.066489734 0.0918904
000090 20 b8 80 3c 77 e6 64 bf c7 83 43 3f 83 87 c6 bd
       0.015712798 -0.8941416 0.7637295 -0.096938156
0000a0 43 12 fc 3e a3 9c a9 be 53 c6 57 be 79 07 b0 be
       0.49232683 -0.33127317 -0.21071748 -0.343807
0000b0 d9 96 f8 be fa c0 8c be 06 d9 e9 be c9 a6 e9 3d
       -0.48552588 -0.2749098 -0.45673388 0.11408765
0000c0 cd 93 0a be 87 a1 1c bf b8 fa fb 3c 1c 49 34 bf
       -0.13532944 -0.6118397 0.0307592 -0.70424056
0000d0 f0 c8 06 3f e3 ca 0a bf 5b a3 87 bd fa 40 b5 be
       0.52650356 -0.5421583 -0.066229545 -0.35401136
0000e0 f0 19 9a bb 7f 22 cd be 61 6d c7 3e ee 0d df 3e
       -0.004702799 -0.4006538 0.38950637 0.43565315
0000f0 2f 59 15 3e 2b cf 5b 3d 04 d0 c6 3e 59 fb 89 be
       0.14584802 0.053664368 0.38830578 -0.26949576
000100 8f 96 04 3e 65 43 dc be 87 de 99 be e4 6c d2 3e
       0.12948059 -0.43020168 -0.30052587 0.41098702
000110 ca 84 49 3e 6b 4b 22 3e 28 86 2f be b3 b6 82 3d
       0.19679561 0.15849082 -0.1714102 0.06382503
000120 b5 4a a4 3e 9e bb 8c be 3b 60 fb be 54 22 59 3f
       0.32088247 -0.2748689 -0.49096856 0.84818006
000130 c2 d3 7e be 06 0f 37 bf f3 66 4f be 44 90 1a bf
       -0.24885467 -0.715073 -0.20254116 -0.6037638

lstm.weight_ih_l1 f4 [80, 20]
000000 41 99 77 bd 0f 00 13 be 0d 50 bd 3f 14 da ca be
       -0.06044889 -0.14355491 1.4790055 -0.39619505
000010 8f 97 83 3f 17 56 b2 3c fe 2f e8 3d 23 9a f8 bd
       1.0280627 0.021769566 0.11337279 -0.12138774
000020 26 19 af bd 58 c4 6c 3f ae c4 cb bf 48 c9 51 3f
       -0.085497186 0.92487097 -1.5919397 0.81947756
000030 cd e6 46 bf 7d 59 de 3f f8 1c 42 be 73 94 af 3f
       -0.77695924 1.737106 -0.18956363 1.3717178
000040 ca bb 9a 3f b1 79 c7 3c 2e a0 ac bf 08 ac 45 3c
       1.2088559 0.02435002 -1.3486383 0.012064941
000050 33 6a 0d 3f 44 97 0c bf 39 35 a6 3f 42 05 94 3e
       0.5524017 -0.54918313 1.2984992 0.2891026
000060 3d 04 1e 3d 71 c1 2f bf 43 ac 89 3f f9 15 28 bd
       0.03857826 -0.68654543 1.0755695 -0.04103658
000070 a1 54 d0 3f b1 a8 56 bf 9e f6 81 be 92 5a 5d 3f
       1.6275827 -0.8385115 -0.25383466 0.86466324
000080 27 9e 85 3f 36 fc 1f bd 9a 22 1d bf 1d 6a d2 bf
       1.0438889 -0.039058886 -0.6138092 -1.6438633
000090 dd 47 ff be 53 3b 22 c0 00 b5 46 3d 42 41 c3 3f
       -0.49859515 -2.5348709 0.04851246 1.525429
0000a0 95 c7 92 bf 66 4b a5 3f e3 53 01 bf 21 c3 25 3f
       -1.1467158 1.2913635 -0.50518626 0.6475087
0000b0 9d e7 c4 be 45 d3 0c 3f ca 9d 00 bf 43 a3 12 3e
       -0.38457957 0.5500987 -0.50240767 0.14320092
0000c0 7a f3 93 bf 50 ad f6 3d dd 54 4c 3b 9a c9 95 3f
       -1.1558678 0.120447755 0.0031178512 1.1702149
0000d0 fc cf 36 3f 60 ca 22 3e 3f db 14 bf 54 8b ed 3e
       0.7141111 0.15897512 -0.58147043 0.4639536
0000e0 4d e4 12 be e6 de 10 bf be ac dc 3f 85 e9 08 bf
       -0.14344902 -0.56590116 1.7240217 -0.5348132
0000f0 97 a8 41 3e 71 2b 3f bf ca 6c 85 3f d3 89 98 3f
       0.18911968 -0.7467566 1.0423825 1.1917061
000100 45 3b 4d bf 44 e5 28 be 85 ad 8d bf eb ae c0 be
       -0.80168563 -0.16493708 -1.1068579 -0.37633452
000110 89 b6 42 40 c2 9d 2b 3e ab 1b 49 3f 96 65 f6 3e
       3.042391 0.16759399 0.7855784 0.4812438
000120 d2 ed bf 3f 2b 3b 51 be b7 7a 63 bf 68 31 85 bf
       1.4994452 -0.20432727 -0.88859123 -1.0405703
000130 e0 7c 70 3f 9d 11 50 bf 9c 31 c3 3f 62 b4 c0 3f
       0.93940544 -0.81276876 1.5249515 1.5055048
000140 8b e0 44 3f 21 78 61 3f 6b c2 86 3e fb f8 0e c0
       0.76905125 0.8807393 0.26320204 -2.2339466
000150 00 e3 60 be 09 ed e7 3f ee fe e9 be e6 1f 7b 3f
       -0.21961594 1.8119212 -0.45702308 0.9809555
000160 56 77 e5 be af 83 d6 3f 14 ed 4a be 68 14 b3 3e
       -0.4481761 1.6758937 -0.19817 0.34976506
000170 f8 e6 f4 bf a6 a5 b5 3f fc 63 b0 be 82 28 98 3f
       -1.9132986 1.4191177 -0.34451282 1.1887362
000180 9d 56 93 bc df 7a 09 be 80 82 26 3f 2d 5a e2 3f
       -0.017985636 -0.13425778 0.6504288 1.768377
000190 08 a5 73 bf a4 02 89 be 74 68 e9 be 32 15 b5 3f
       -0.9517369 -0.26759827 -0.45587504 1.4147093
0001a0 c1 0e 9b bf 7c 0c 02 3f 56 8f 60 bf 78 65 b2 be
       -1.2113878 0.508003 -0.87718713 -0.3484304
0001b0 c1 81 a6 3f 2b 1d cc 3d 0c df 7d 3e 05 a3 e3 3f
       1.3008348 0.09966501 0.24792117 1.7784125
0001c0 01 d9 9a 3f 2e d8 4e bf ca 88 a7 be 04 9c 53 bf
       1.2097474 -0.80798614 -0.3272155 -0.82659936
0001d0 c2 45 de 3e e8 8b cb 3d 51 9f ff 3f ea 70 19 3f
       0.43412596 0.099387944 1.9970495 0.5993792
0001e0 06 50 c1 3e a8 5d a3 3f 6b 4d 50 3f 7d 2e c4 be
       0.37756366 1.2762957 0.8136813 -0.38316718
0001f0 15 52 71 bf 62 0e cb be 6d fb 00 3f 8b 14 35 bf
       -0.9426587 -0.3965941 0.50383645 -0.7073447
000200 ef 59 32 3f c8 1b 32 bf 12 c5 a5 bc 2a 8d 96 3e
       0.6966848 -0.6957364 -0.020235572 0.29404575
000210 96 b0 d8 bc 16 5f 76 bf 19 fc 0b bf 47 a9 36 bf
       -0.02645139 -0.9623884 -0.54681545 -0.71352047
000220 53 dd b7 be 2c eb b1 bf 16 8b b9 3e ab 54 a4 3f
       -0.35911044 -1.3899894 0.36238927 1.2838339
000230 42 31 c9 3e c4 5a fc 3e 8b ba 19 3e 20 cc 9a bf
       0.39295393 0.49288 0.15012567 -1.2093544
000240 94 28 9b bf 77 c2 61 bf 72 cb 11 bf ce 91 5a 3f
       -1.2121758 -0.88187355 -0.5695106 0.8537873
000250 b9 48 93 be 90 b1 30 bf 55 90 12 bf 28 21 92 3f
       -0.2876642 -0.6902094 -0.57251483 1.1416368
000260 27 c9 5d 3f 15 88 56 be c7 81 13 40 ec 8f 31 bf
       0.8663506 -0.20950349 2.304796 -0.6936023
000270 7d 2a 01 be 5f ba 97 bd 9e 71 3f bf 97 62 2b 40
       -0.12613864 -0.07408594 -0.7478274 2.6778924
000280 c4 e3 8e be 8c 67 8d bf 81 d9 b7 bf d8 e0 f3 3f
       -0.27908146 -1.1047225 -1.4363252 1.9052992
000290 c1 0a 52 3f 23 83 f2 3f e3 58 d8 3e 7c 84 88 3f
       0.8204766 1.894627 0.42255315 1.0665431
0002a0 63 dd 09 40 32 98 d6 be 38 a8 6a 3f 61 ad 5f 3f
       2.1541374 -0.4191299 0.9166293 0.8737393
0002b0 a3 e7 c0 3f 25 4d a6 bf 19 81 05 c0 21 43 b4 3e
       1.507069 -1.2992293 -2.0860045 0.35207465
0002c0 6a ad 11 3e 04 1f 88 be a5 cf 32 bf 89 53 2e bf
       0.14226308 -0.26586163 -0.6984809 -0.68096215
0002d0 05 b0 8c bf 63 2f d1 3c 58 48 c8 3e 50 0e ab 3f
       -1.0991217 0.025535291 0.39117694 1.3363743
0002e0 03 95 08 bf 09 5b 5d 3e b9 7f 74 bf 46 b4 33 bf
       -0.53352374 0.21616758 -0.9550739 -0.7019695
0002f0 49 a2 a9 3f 1a a4 94 be 66 b3 d1 3e 3f d5 b0 3e
       1.325265 -0.2903145 0.40957183 0.34537694
000300 10 6b 7f 3e 89 e5 0f bf f0 9b db 3d 90 0d 68 bf
       0.24943185 -0.5620962 0.10723102 -0.90645695
000310 fb 7b 39 3f 5b 11 4b bf 46 32 e0 3f a2 3b a0 3d
       0.72454804 -0.7932336 1.7515342 0.07823874
000320 39 c5 40 3e 1e 32 33 40 53 fd 1c 3e 31 95 44 3f
       0.18825234 2.799934 0.1533101 0.7679015
000330 33 2b 89 be 68 45 02 3e 48 8d 01 be 50 93 4f bf
       -0.2679077 0.12721789 -0.12651551 -0.81084156
000340 67 1d c6 be dd ad 14 3e 03 b2 ad be db 88 4d 3f
       -0.38694307 0.14519449 -0.33924875 0.8028695
000350 44 cd 17 3f d3 2f 3d 3f fa c4 81 be 4c 89 7a 3f
       0.59297585 0.739011 -0.25345594 0.9786575
000360 8b 52 08 c0 1f 49 8a bf 84 06 ef 3f 8f 55 af be
       -2.130038 -1.0803565 1.8673863 -0.34244964
000370 a4 10 c5 bf 3b 9c 59 3f b1 b0 50 3f 45 63 65 3f
       -1.5395703 0.85004014 0.8151961 0.896046
000380 00 e3 00 bf b5 d7 9b 3e 15 1b 85 be 2a 9c c0 bf
       -0.50346375 0.3043801 -0.25997224 -1.5047657
000390 d4 49 c5 3f 2f f7 ab 3f a4 b7 08 40 4d 39 12 40
       1.5413156 1.343481 2.1362085 2.2847474
0003a0 0a c0 ba 3f 8b fb f5 3e 63 11 82 3e 80 50 5e be
       1.4589856 0.48043475 0.2540389 -0.21710396
0003b0 e2 a5 6f bf 42 b3 1d 3f 20 ff 2d 40 1a 5c 96 3d
       -0.9361249 0.6160165 2.7186966 0.07341786
0003c0 ee c3 c8 bf f5 50 d7 3f 0a ea 78 be 98 47 ba 3e
       -1.5684793 1.6821581 -0.24308029 0.36382747
0003d0 84 ea 4b bf d9 ea 1b 3f 80 84 07 3f 5a 7d 1b bf
       -0.7965472 0.60905224 0.52936554 -0.60738146
0003e0 22 50 16 40 92 31 97 be a0 6c 22 bf 88 82 13 3f
       2.348641 -0.29530007 -0.63447 0.5762105
0003f0 14 f1 61 3f 1b 89 1c bf 8f df cb 3f 2b 3b c8 be
       0.8825848 -0.61146706 1.59276 -0.39107642

lstm.weight_hh_l1 f4 [80, 20]
000000 f4 7f f8 3e fb e4 d9 3e 53 ae 91 bc 9f f3 a2 3e
       0.4853512 0.4255751 -0.01778332 0.31826493
000010 1c 33 a3 bf a1 f8 2b bf eb 97 32 bf 4f 2d bf 3d
       -1.2749972 -0.6717625 -0.6976306 0.09334814
000020 03 36 0a bf 73 76 fa 3e 39 65 89 bf b1 0e b4 bf
       -0.53988665 0.48918495 -1.0734016 -1.4066983
000030 5a 11 92 3e bc 84 08 be 9d be 6d be 0e e5 ed be
       0.28528863 -0.13331884 -0.23217244 -0.46463817
000040 9a 9e 94 3f c2 46 14 3f d9 0c ac 3c 73 79 40 bf
       1.1610901 0.5792047 0.02100222 -0.75185317
000050 22 6d a4 3f 6b f3 53 bf 42 69 b4 be 5e 1c 10 be
       1.2845805 -0.827933 -0.35236555 -0.14073321
000060 81 de 26 3f e3 76 53 bf f4 49 f6 3e d2 cb aa 3f
       0.65183264 -0.8260328 0.48103297 1.3343451
000070 9e 43 a1 3e de 95 36 3f 4a db 07 be 58 46 07 bf
       0.314969 0.7132243 -0.13267246 -0.5284171
000080 04 4f c0 3e 96 d3 d8 3f 68 a3 a5 bf 0f 9a ad 3f
       0.37560284 1.6939571 -1.2940493 1.356264
000090 e2 ea 21 bf 4d 10 05 3c 6d 81 a9 bf 9e 54 b0 bd
       -0.6324903 0.008121562 -1.3242623 -0.086098894
0000a0 d3 f7 8a 3f 7c 58 64 3e f4 08 37 3e 2f a6 d5 3d
       1.085688 0.22299379 0.17874509 0.10432088
0000b0 ad 4c 10 bf e8 4d 90 3e d6 49 f2 3e 8b 1b 0d 3f
       -0.56367 0.28184438 0.47321957 0.5512015
0000c0 db 12 ee 3e af 2c b5 3e b6 c9 a7 bd 48 fe 8e be
       0.4649876 0.35385653 -0.0819277 -0.27928376
0000d0 26 59 22 3f 9c f7 a4 bd 99 d0 c2 be d7 84 ea be
       0.6341728 -0.0805504 -0.38049772 -0.45804474
0000e0 58 9d 8f bb 2e a4 50 3f 8f 1e f8 bd e4 6c 58 3d
       -0.0043827705 0.8150052 -0.121152036 0.05283822
0000f0 fc f0 04 40 ae 65 9e 3f 83 50 3c 3e 6f 4b 3b 3f
       2.0772085 1.237478 0.18390088 0.7316198
000100 ec 08 41 bf 1b 1a 7a 3f 79 61 d3 be ae 37 9f 3e
       -0.7540424 0.97696084 -0.41285303 0.31097168
000110 26 bd 9d 3f 1d fb d1 3f 51 1f aa 3e b5 74 83 3f
       1.2323349 1.6404759 0.33227018 1.0269991
000120 1d 79 5c 3f 7e 59 c6 3d 1b 95 1c bf 39 d0 94 be
       0.86122304 0.09685038 -0.61165017 -0.2906511
000130 8c 2f a5 bf 1c 64 9f 3f 12 bb 91 bf 18 9b 61 bf
       -1.2905135 1.2452426 -1.1385214 -0.8812728
000140 2d 80 99 3f 16 7b b9 3f f1 22 8b 3e fb a8 df 3e
       1.1992241 1.4490688 0.27175096 0.4368361
000150 14 e8 01 3f 79 8e 1a 3f 1c 41 d8 bf e2 fd 0a bf
       0.5074475 0.60373646 -1.689487 -0.54293644
000160 0c 3c f1 be 7e bb 8d 3f 5f 7d 10 3d a7 5c b3 3f
       -0.47116125 1.1072843 0.035275813 1.401265
000170 37 1c 96 bf 25 6f 08 bf e7 00 50 be 2b 70 14 3e
       -1.172736 -0.53294593 -0.20312844 0.14495914
000180 75 4d 6b be bb c3 93 3f c1 4c e5 be 69 e6 97 bf
       -0.22978766 1.1544107 -0.4478512 -1.1867191
000190 0e f7 2d 40 c2 cf ee 3f 89 5c ac 3e f0 fe 86 3f
       2.718204 1.8657153 0.3366435 1.0546551
0001a0 16 6a a6 be 8e 69 dd 3e 76 2a 16 bf 73 30 74 3f
       -0.32502812 0.43244594 -0.5865854 0.9538643
0001b0 9c 66 b3 3f b9 78 9b 3f f4 01 0d 3f 44 02 37 3e
       1.4015689 1.2146217 0.55081105 0.17871958
0001c0 f8 48 3e 3e f7 60 52 bf 6a 74 f1 38 b7 f2 df be
       0.18582523 -0.82179207 0.00011513459 -0.43739864
0001d0 cd f0 d5 be 72 7d f0 3e a8 bb 94 be d7 54 9b bd
       -0.4178528 0.46970707 -0.2904942 -0.07584541
0001e0 18 4c 91 3f 93 bb 61 be 2d f3 ab bf 86 11 aa 3e
       1.1351347 -0.2204421 -1.3433586 0.33216494
0001f0 91 eb 58 3e 88 9b 3a bf ae 44 4d 3d 1d 70 4d 3e
       0.21183611 -0.7289357 0.050114326 0.20062299
000200 66 b2 33 3f ae 12 8f 3f a7 6a 13 c0 0b 47 21 bf
       0.7019409 1.1177576 -2.3033845 -0.6299903
000210 97 e3 23 3e 8c 26 ec bc 5c 52 cf bd a2 7c 1d 3f
       0.16004787 -0.028826974 -0.10123131 0.615183
000220 b8 cb 96 3e be df 3a 3f d0 7c ef 3e ee 70 ff be
       0.294523 0.72997653 0.46774912 -0.49890846
000230 8f f7 3a 40 21 da 3b 3f 9c 35 83 be ec 82 36 bd
       2.9213598 0.73379713 -0.25626838 -0.04455845
000240 e4 7a bf be 3b 40 1d 3f 74 1a 0b bf 67 cb 87 3f
       -0.37398446 0.6142613 -0.5433724 1.0608948
000250 1b 73 57 be be c8 da 3e 92 0a 28 bf 29 9d 09 3e
       -0.21040003 0.4273128 -0.6564113 0.13438858
000260 d1 f5 87 bf c7 5a 86 bf ab 85 45 3f 2a d1 33 be
       -1.0621892 -1.0496453 0.77157086 -0.17560259
000270 21 3b 21 bf d3 02 18 40 85 8c 40 bf 68 e6 90 be
       -0.6298085 2.3751724 -0.75214416 -0.28300786
000280 fe 76 7b 3e f0 86 74 3f e1 8c bb 3e 72 87 22 3f
       0.2455711 0.955184 0.3663092 0.63487923
000290 f4 4d 39 bf ef b7 a9 be 3c 6d 37 bf 12 5f 92 bd
       -0.7238457 -0.33148143 -0.71651053 -0.071470395
0002a0 22 84 e0 be ef 02 84 3e 41 43 b0 3f 48 3d f1 3e
       -0.4385081 0.25783488 1.3770524 0.47117066
0002b0 fc 79 cc bf 3f f1 a6 bf 6c b7 65 3f 03 cc 38 bf
       -1.5974727 -1.3042372 0.89733005 -0.721863
0002c0 b1 5c 60 be d0 9f 82 3e 70 1f 47 3e ee 4d 76 bf
       -0.21910359 0.25512552 0.19445586 -0.9621266
0002d0 17 44 dd 3f ea e1 9d 3f f2 08 5e 3c 97 b7 99 3f
       1.7286404 1.2334569 0.013551937 1.2009152
0002e0 01 93 71 bf 37 7d bd 3e 10 90 ce bd 4f 88 23 be
       -0.94364935 0.37009594 -0.100860715 -0.15969966
0002f0 5d 60 58 3f 09 a3 85 3f 9d 3a d7 3e 59 d1 1e 3e
       0.8452204 1.0440379 0.42036906 0.15509547
000300 7f a2 be 3f eb 7b ef 3d 5d ba 45 bf 22 63 a8 bd
       1.489334 0.11693557 -0.7723749 -0.08222033
000310 0a 65 f6 be a8 ad 4d 3f 94 6f 30 bf 14 19 51 bf
       -0.48123962 0.80343103 -0.68920255 -0.8167889
000320 97 20 7c be 0b 73 5e bf 87 f7 50 3c fa c2 2c 3c
       -0.24621807 -0.8689429 0.012754328 0.010544533
000330 b4 68 09 c0 24 43 06 3f ce 7e 96 3f 37 82 79 3f
       -2.1470156 0.524462 1.1757448 0.9746432
000340 1a 73 b6 3f de 75 47 be c1 4d 2a bd 7a ab dd be
       1.4253876 -0.19478557 -0.04157806 -0.4329489
000350 43 9d 6e 3f d7 d4 77 be ad aa 50 3e b7 52 81 be
       0.9320871 -0.24202286 0.20377608 -0.2525842
000360 23 a8 3f 3e 65 4f c5 be 7e cf 58 3d f7 b1 40 3f
       0.18716483 -0.38537136 0.052932255 0.7527155
000370 8f e8 2e 40 16 4e a6 3f 95 07 4e 3f ba 0f e4 3f
       2.7329443 1.299258 0.8048032 1.7817299
000380 9b 40 10 bf d3 b0 b8 3f df 6b 12 3e f9 ac d5 be
       -0.5634858 1.4428962 0.14298962 -0.4173353
000390 6c 2b 4d 40 eb b4 fd 3f 41 b7 b0 3f 17 c1 8d 3f
       3.2057753 1.9820837 1.3805925 1.1074551
0003a0 45 cd 9d 3f 71 04 b4 3e 81 02 c5 bf f3 e0 ee bf
       1.2328268 0.3515964 -1.5391389 -1.8662399
0003b0 6d 13 9d bf 38 fa 8a 3d f3 e2 95 bf c7 a5 0f c0
       -1.2271553 0.06786007 -1.1709884 -2.2444932
0003c0 9d 76 03 3f e9 de 80 3e 81 91 db be df f2 b6 3e
       0.51352865 0.25170067 -0.42884448 0.3573217
0003d0 1a d6 98 b9 c1 8d 57 3e 1b bd 1b bf 4c 7d 7a 3f
       -0.00029151217 0.21050169 -0.6083543 0.9784744
0003e0 1c f7 ce 3d 7c 06 5f 3f 49 87 b3 be ab 58 45 3f
       0.10105726 0.8711927 -0.35064152 0.7708842
0003f0 a2 db 1c bf ab 4c 64 bf df 72 4c 3e 21 9a 06 3f
       -0.61272633 -0.89179486 0.19965695 0.5257893

lstm.bias_ih_l1 f4 [80]
000000 6e f8 18 be b3 89 8e bf fc 50 eb bf c0 10 9d bf
       -0.14938518 -1.1135772 -1.838409 -1.2270737
000010 4b 21 d6 bf 30 e5 94 bf f2 25 6a bf 3a e8 8c bf
       -1.672891 -1.1632442 -0.9146415 -1.100837
000020 d6 16 6f bf d0 4f b1 bf f3 8b 62 bf a4 6c ae bf
       -0.9339422 -1.3852482 -0.88494796 -1.3626904
000030 c9 5a 82 bf af 57 80 bf 66 81 c4 ba e3 5f 9a bf
       -1.0183955 -1.0026759 -0.0014992177 -1.2060512
000040 d1 ed ac bf 45 9b ce be 3e 5a ca bf 1a 00 5c bf
       -1.3510076 -0.40352836 -1.580879 -0.85937655
000050 08 a0 b0 be f1 b6 7b bf d3 3d a2 be e9 b6 b0 be
       -0.34497094 -0.9832602 -0.31687793 -0.3451455
000060 c7 cb db bf 9a 5e 44 be d2 e1 3d bf 60 66 23 bf
       -1.7171563 -0.19176713 -0.741727 -0.63828087
000070 e7 ab 3a c0 58 4f bb bf bf 1b 2c bd e8 63 d5 bf
       -2.916742 -1.4633589 -0.04201865 -1.6671114
000080 14 76 ae be 02 0f 14 bf 8e 5f f4 bd a8 6e 5b bf
       -0.3407446 -0.578354 -0.11932288 -0.85715723
000090 29 06 bc bf bd 12 57 be 46 25 35 be a3 ea 41 bf
       -1.468938 -0.21003242 -0.1769 -0.7574865
0000a0 5e af 35 bf 4b 7c a0 be a5 4c 2b bd 4d 61 0e be
       -0.70970714 -0.31344828 -0.04182114 -0.13904305
0000b0 a0 74 c8 bd 52 53 03 3e 0e 66 8c 3e 7b 65 91 3e
       -0.097878695 0.12824753 0.27421612 0.28397736
0000c0 8b a0 74 be 0e a5 47 be 91 ab a9 3e 6f ce 34 3e
       -0.23889367 -0.19496557 0.33138707 0.17656873
0000d0 b8 5f 08 3e 08 5b 29 3d e2 7e 93 3d a2 29 89 bc
       0.13317764 0.04134658 0.07201935 -0.016743485
0000e0 ab 2b 3a be ac 6d 85 be 0d 9e 3a 3d 93 56 c6 3d
       -0.1818072 -0.26060236 0.045560885 0.096844815
0000f0 36 a3 05 bf 92 d5 7b bf 04 b0 e4 bf 5f 00 b6 bf
       -0.52202165 -0.9837276 -1.7866216 -1.4218863
000100 44 f9 a0 bf b9 ce 87 bf fb 00 08 bf 0b 63 36 bf
       -1.257607 -1.0609962 -0.53126496 -0.7124488
000110 69 c0 4e bf b7 31 ae bf 0e 7a 96 bf ac 65 9f bf
       -0.80762345 -1.3608922 -1.1755998 -1.2452903
000120 29 b8 36 bf 2a f3 92 bf 7b 8d 73 be bb 0d 74 bf
       -0.71374756 -1.1480458 -0.2378444 -0.9533345
000130 66 0e b3 bf 6c 61 fe be 70 f0 db bf b0 4a 72 bf
       -1.3988769 -0.49683702 -1.7182751 -0.94645214

lstm.bias_hh_l1 f4 [80]
000000 e2 62 0f 3e 76 da 82 bf 68 9a ec bf dc 4e be bf
       0.14002565 -1.0222919 -1.8484621 -1.4867816
000010 0d 97 ba bf 6a 98 91 bf e8 34 2b bf bc 2c 8b bf
       -1.4577347 -1.1374638 -0.66877604 -1.0873027
000020 b1 46 78 bf c5 44 be bf 86 73 6e bf d0 f8 80 bf
       -0.96982867 -1.4864737 -0.93145025 -1.0075932
000030 08 61 5d bf 78 e6 a8 bf f3 aa 3c be 2c 20 a6 bf
       -0.8647618 -1.3195333 -0.18424587 -1.2978568
000040 31 7d af bf ba 58 06 bf 78 65 be bf 47 14 73 bf
       -1.371008 -0.52479136 -1.4874716 -0.94952816
000050 41 7f 81 be da 0a a2 bf 7e 20 62 be dd 8b 0b bf
       -0.252924 -1.2659562 -0.22082707 -0.5451029
000060 3a 43 fc bf d9 fe 02 bf 82 5f 30 bf 10 c5 59 bf
       -1.9708016 -0.51170117 -0.68895733 -0.8506632
000070 3e 9d 42 c0 5e fe ba bf c5 af 06 3e 6c e7 c5 bf
       -3.0408473 -1.4608877 0.13152988 -1.5461249
000080 d5 6c c3 be fa 82 c1 be 72 fe 1b be 64 58 29 bf
       -0.3816897 -0.3779524 -0.15233782 -0.661505
000090 1a 2d c8 bf 44 af 46 be ac 47 17 bf ba 67 23 bf
       -1.5638764 -0.19402796 -0.5909374 -0.6383015
0000a0 66 81 21 bf cd 35 85 be 5a 07 9d 3c 94 92 46 be
       -0.6308807 -0.2601761 0.019168545 -0.19391853
0000b0 5e 1f 04 3d d4 b3 41 be ca 9a 0b 3e b6 99 d5 3d
       0.032256477 -0.18916255 0.13633266 0.10429709
0000c0 65 e7 33 be bb 12 c1 bd ea 15 af 3d b5 31 e7 3d
       -0.17568739 -0.09427401 0.08549102 0.11288778
0000d0 01 1e e2 3d 03 74 8f bd 21 0e 63 bd 3a 04 7e 3e
       0.11040879 -0.07004549 -0.055433396 0.248063
0000e0 e5 f6 22 bd b7 e3 5b be be 39 f6 bd 2a 9c e4 3d
       -0.03978624 -0.21473585 -0.12022732 0.111625984
0000f0 4b 37 28 bf 80 84 6d bf 53 1c 0d c0 4b b8 b3 bf
       -0.6570937 -0.92780304 -2.2048538 -1.4040617
000100 7a e8 ae bf 21 a6 89 bf 7d 5f 5e bf 9e 1a 8a bf
       -1.3664696 -1.0753824 -0.86864454 -1.0789373
000110 ec 9e 7d bf 51 39 bd bf db 1a a6 bf 49 38 89 bf
       -0.9907062 -1.4783117 -1.2976946 -1.0720302
000120 2d 14 2a bf c5 b5 a1 bf 36 9f 97 be 06 ff 95 bf
       -0.66437036 -1.2633597 -0.29613656 -1.1718452
000130 23 8d b6 bf 25 2a ed be 58 6d cb bf a9 1e 6a bf
       -1.4261822 -0.46321216 -1.5892744 -0.91453034

fc.weight f4 [2, 20]
000000 92 ec 39 be 79 37 b4 3d 05 0a 92 be 2e 2a 28 bf
       -0.1815665 0.08799643 -0.2852327 -0.6568936
000010 87 8e 4f bd 42 2a 0c bf 30 9d 66 3c 7d 58 44 3e
       -0.050673034 -0.5475198 0.014075562 0.1917438
000020 c7 46 62 be a2 28 0d bf a1 0d a3 be 90 a0 80 bf
       -0.22097312 -0.55140126 -0.31846336 -1.0049
000030 e1 5c 78 be a0 5c bf be 74 18 32 3f 7a a7 07 bd
       -0.2425418 -0.37375355 0.6956856 -0.033118702
000040 2a eb ee 3e 60 4a 72 3e f8 d6 97 3e 5a ec f6 3e
       0.4666379 0.23661184 0.29656196 0.48227197
000050 26 bc 2d bf dc 7f ce be 87 f4 6f 3c 46 e7 13 be
       -0.67865217 -0.40331924 0.014645702 -0.14443693
000060 ed 01 0f 3f 0e d2 98 bd ff 2c 06 3f 98 06 aa 3e
       0.55862314 -0.0746194 0.5241241 0.33208156
000070 af 6b 8e 3e cd 0a 2d be cc c9 30 3d fc 62 59 3e
       0.2781653 -0.16898651 0.0431612 0.21229166
000080 00 44 88 3e b8 ba 9d 3e b1 0a ec bc c1 06 3b 3f
       0.2661438 0.30806518 -0.028813692 0.7305718
000090 b8 6d 4b be 2e 94 03 bf a6 19 41 be b7 44 be 3e
       -0.19866073 -0.5139798 -0.1885744 0.371618

fc.bias f4 [2]
000000 4d 80 ad 3d 94 4d 71 3e
       0.08471737 0.2356475
