trained_parameters/l_pd_BostonHousing.pt (torch, 10692 bytes, 7 tensors)

fc1.weight f4 [26, 13]
00000000: 1ef6 4ebe c8ee 2c3d 087f f8bc 8605 f7bd
00000010: 42e1 003e c0fe d7bc c8bd ea3d 3807 643d
00000020: 4078 c53d b0f1 cdbc 7bb6 85be 41a2 06be
00000030: 1eda 10be a131 14be 15d3 a13e 3f0d 86bd
00000040: 9db1 c93d d31b d83d d32c b3be f273 1b3e
00000050: ed97 ed3d aa4d 1e3f 0b31 b83e cdd3 a2bd
00000060: eaf8 493e c9f4 19bf 6781 a53d 7104 cbbd
00000070: 9270 303e b424 0dbf eef5 c43d 3cfa 563e
00000080: 49c1 56be e133 c03f 26a6 403e 61fd 6ebe
00000090: 6b80 4ebe 040b 1dbf 0cea e93e 9720 543b
000000a0: b0d1 b93d 96b5 3d3e 8cee b7be dc19 bcbe
000000b0: 6ee4 733d 14e9 b53d f2a9 ba3e fd82 15bf
000000c0: 39a0 233f 1308 043f 7241 08be 553c 97be
000000d0: 9db4 0bbc 03e8 87bd dba4 b03e af11 533e
000000e0: 0c74 793c dfe1 38bf 4b09 5d3e 4491 053e
000000f0: 489f b7bd b5db b13e 1ded 2c3e dc5e 0a3e
00000100: ce07 f0bd 3064 8f3d 110c 8b3e a934 7a3d
00000110: 4e22 833c 3732 213e dffb d13e 3250 153b
00000120: 5e7b cb3e 14ee 193e 6845 90be 8316 6f3e
00000130: c067 13bf e579 cd3e 04a3 4e3d e35b 85be
00000140: b16a f9bd 106a 97be 4e6f 9c3d c6e2 5a3e
00000150: 2388 ae3d cef9 123f 8a61 323d 69fe f5be
00000160: d0e9 473e 5734 183e 0f10 7b3f a290 f0bd
00000170: b523 843e f403 71bd 6aec e73d 82bf 99bd
00000180: af02 00be fcd6 ba3d 4a8f 893b 0c3d a43d
00000190: 785d 7c3e e9f3 27be d0fc a33b 5f71 90be
000001a0: 22cc 393d b4a0 543e db3d 8abd a67c 5a3e
000001b0: 5646 5abf 266c 1bbd f470 9a3e 915c 05c0
000001c0: a0d0 973e 94cc 113d 6f50 5b3e 858f 56bb
000001d0: 7f95 3abf 0d81 033e a2f3 11be 2567 88be
000001e0: 5dba eabd a780 043f 76f4 8fbe b728 26bf
000001f0: 1781 d33e 8693 07bf a965 9fbe bccf 26be
00000200: c390 423e c34f de3e d54e a73d 2d0c 14be
00000210: 4461 78be ec35 1a3e eeee 523e f21f 4bbe
00000220: 9357 a1be 6f0b bdbe 31ae cfbe ddf0 c7be
00000230: 1d75 b13d 798c ed3e 3998 d8be baaa aebd
00000240: 07f8 32be b471 243e 753a 1ebe af2b acbd
00000250: 95cc 8abe 3672 a33e 4983 9f3e 31e0 0cbe
00000260: 9dd8 97bd c9f2 993e 4f98 b23d 3aa9 0a3f
00000270: db1c 84bd 3ecf abbe dd85 283e bf00 83be
00000280: 4a81 803e 0ecf 033f af35 be3d cb81 a03c
00000290: a5ee 093e 600a c3be c58f 50be cec6 49be
000002a0: 3c29 a6be 3b66 3a3d 26a9 013e a417 17be
000002b0: bee5 a63e 0314 e5be 8dec f2bb 19fb c93e
000002c0: 5eb8 6dbe 80dd 643a 2e34 c9be 6370 d0bc
000002d0: 89d1 4cbc 38c9 6bbf a695 53be d0ee 9ebc
000002e0: be46 5fbe b2f5 33be 544e 42bd 9263 653e
000002f0: 568c 42be 1203 8bbe 7281 31be 93db 813e
00000300: 2a01 87bd 5d38 2abe c85c 4e3d 1409 243e
00000310: e77e aebd bdd1 1ebe d66b c8bd dd87 81bd
00000320: 40e2 d23e 9abb 213e 45e4 20bc e22b 61bd
00000330: cbc0 fbbe ad70 28bf aecf 363e 3f49 a3ba
00000340: 3667 7cbd 5847 4abd 2062 10bf 7cab 20be
00000350: e97f c3bd c922 50be 2a23 693e 2b47 ec3c
00000360: 0de2 21bd d8f1 e23e 9aa7 a2be 9b63 633e
00000370: 0753 f5be fbdf 153b 3c73 a2bd fbd9 413e
00000380: 4967 f6bd 663c 24be 5d18 173f 575b 3a3e
00000390: 0d39 99be 8e43 893e d15e 2cbe 2b02 443d
000003a0: 2c73 543e aced 7ebf f319 823d d16a 4d3d
000003b0: a2c1 d03d 4292 b23d 8f9a f1be 80e4 993e
000003c0: ec06 333e dca0 d53c 0da3 583e bbc7 04be
000003d0: 8e5d 80be d67c 353c acc5 05bf 87cd 923c
000003e0: 669d 83be 6848 703e 6ef1 4f3d 1814 bf3c
000003f0: 57a4 2a3f 8477 b0be 8374 023e fb0f 363d
-0.20211074 0.042219907 -0.03033401 -0.120616004 0.12585929 -0.026366591 0.11461979 0.055670947
0.096420765 -0.02513966 -0.26115784 -0.13147832 -0.14145705 -0.14472057 0.31606355 -0.06545495
0.0984833 0.10552182 -0.34995136 0.15180948 0.11601243 0.61837256 0.35974917 -0.07950554
0.1972386 -0.6013914 0.08081322 -0.099129565 0.17230442 -0.5513413 0.0961722 0.20993894
-0.2097217 1.5015832 0.1881338 -0.23338844 -0.20166175 -0.61344934 0.45686376 0.0032368058
0.09073198 0.18526301 -0.35924184 -0.3673848 0.05954402 0.08882347 0.36457783 -0.58403
0.63916355 0.5157482 -0.13306215 -0.29538217 -0.008526948 -0.066360496 0.34500775 0.20612215
0.015225422 -0.7221965 0.21585576 0.13043696 -0.08965927 0.34737936 0.16887327 0.13512748
-0.117202386 0.07001531 0.27157643 0.061085377 0.016007569 0.15741812 0.41012475 0.0022783396
0.3974256 0.15032226 -0.28177953 0.23348431 -0.57580185 0.4013206 0.050448433 -0.26046667
-0.12178553 -0.29573107 0.07638417 0.2137557 0.0852206 0.5741242 0.04355005 -0.48045662
0.19522786 0.14863716 0.9807138 -0.117463365 0.25808492 -0.05884166 0.11324389 -0.0750723
-0.12501024 0.09123036 0.0041979896 0.08019456 0.2464503 -0.16401638 0.005004503 -0.28211495
0.04536069 0.20764428 -0.06750079 0.21336612 -0.85263574 -0.037944935 0.301643 -2.0837748
0.29651356 0.03559549 0.21417402 -0.0032739353 -0.7288436 0.12842198 -0.14253095 -0.26641193
-0.11461327 0.5175881 -0.28116196 -0.64905876 0.41309425 -0.5295948 -0.31132248 -0.16290182
0.19000535 0.43420228 0.08169333 -0.1445777 -0.24255854 0.15059632 0.20598957 -0.19836405
-0.31512126 -0.36922786 -0.40562585 -0.39050952 0.08664916 0.46396235 -0.42303637 -0.08528657
-0.17477427 0.16059 -0.15451987 -0.084067695 -0.2710921 0.31923074 0.3115485 -0.13757397
-0.074143626 0.30068043 0.08720457 0.5416447 -0.06450816 -0.3355655 0.16457315 -0.25586507
0.2509864 0.51487815 0.09287583 0.01959314 0.13469942 -0.38093853 -0.20367344 -0.19704744
-0.32453334 0.04550765 0.12662181 -0.14755112 0.32597154 -0.4474183 -0.007413453 0.39449385
-0.23214862 0.0008730516 -0.39297622 -0.025444215 -0.012501129 -0.9210391 -0.20662555 -0.019400984
-0.2180433 -0.17574194 -0.04743798 0.22401264 -0.18998846 -0.2715078 -0.17334536 0.25362834
-0.06592019 -0.16623063 0.05038145 0.16019088 -0.085202985 -0.15509696 -0.09786193 -0.06324742
0.4118824 0.1579422 -0.009820049 -0.05497349 -0.49170527 -0.6579693 0.17852661 -0.0012457742
-0.061621867 -0.049384445 -0.56399727 -0.15690416 -0.09545881 -0.2032577 0.2276732 0.02884253
-0.03952222 0.44325137 -0.31768495 0.22205965 -0.47914907 0.0022869098 -0.079321355 0.18930809
-0.12031419 -0.16038665 0.5902155 0.18198906 -0.2992634 0.26809353 -0.16833045 0.04785363
0.2074706 -0.9958141 0.06352606 0.050150696 0.101931825 0.08719303 -0.4718823 0.30057144
0.17483109 0.02607768 0.21155949 -0.12966816 -0.25071377 0.0110771265 -0.5225475 0.017920269
-0.25706023 0.23465121 0.050767355 0.023325011 0.6665701 -0.34466183 0.12739758 0.044448834

fc1.bias f4 [26]
00000000: 2fe7 06be 0527 623e c656 48be 3579 fdbc
00000010: 369e 153e 7a8b b4bc 60d4 6ebd d8b7 7cbe
00000020: 1856 3abe c3d9 673d 1ca7 133e 34a7 803e
00000030: 17ad 663e cf8a af3e a0c1 ea3d f779 32be
00000040: 9b4b 0a3e 8f3c 57bd 42e6 8b3e cf27 fdbc
00000050: adf3 593e bd00 c73e 278c 5f3e f11d 8a3e
00000060: 9b12 4f3e cfe7 0bbe
-0.13174127 0.22085197 -0.19564351 -0.030941585 0.14611134 -0.022039164 -0.058308005 -0.24679506
-0.18196905 0.056604158 0.14419216 0.25127566 0.22526966 0.3428559 0.11462712 -0.17429338
0.13505404 -0.052547988 0.2732411 -0.030902771 0.21284361 0.3886775 0.21830808 0.26975968
0.20221941 -0.13662647

fc2.weight f4 [27, 26]
00000000: c04f 62bc 4f25 a9be bf2c f2bd d25c 35be
00000010: f910 2dbe 03ea 1bbe 6421 0d3e eaed 7e3d
00000020: cf8d 243e 14ab 0e3e 065a 5f3e c6c3 fabc
00000030: f84b 663e ddcd 66be 9884 303d eaf0 9cbe
00000040: affc 32be 8a43 893e 8694 5b3e e921 493d
00000050: 3f3a 8a3c 69c5 4dbd 172e eabd 82ce ca3d
00000060: 200d 7c3e ebbe 33be f4e7 43be a9fb a73e
00000070: a880 b93d 8928 a73d cdd7 353e 57a4 0a3e
00000080: f658 253e 2cd2 623d bdc3 c2bf d49e 813e
00000090: c5ae 65be 93a3 843e fb1e 0fbf 6510 85bf
000000a0: 6c37 633d 9bd5 32be a3ce ec3d 1481 0bbe
000000b0: 989f 67bd 8372 e9bc 623c 09be fb5b 68be
000000c0: 29d7 f9be adde 2dbe 5306 8fbc 81be d8be
000000d0: 1a10 a03d a9cd 453e e845 2fbf 3a4d 49be
000000e0: 21ab f63d 1d0f d5be 23c3 bd3d bc29 7f3d
000000f0: 1241 a5be 2065 1e3e 2ebe 2f3a 8d8a 3a3e
00000100: 1250 7d3e a9b6 293f 08b8 d63c 2624 4bbf
00000110: 4440 cd3e aa86 aabc b061 f3be d77f aabe
00000120: 359d 00be 4bdc cfbd 4337 96be 3189 ebbd
00000130: 75ff 0e3d fa96 433e a0a3 bcbd c561 b3be
00000140: 3c1a ebbf d9af 1bbf e6e4 29be 8bd6 d23d
00000150: 572a f33d 5585 083d 377a 7fbb 57c5 c83e
00000160: 12a7 eabe 1ba9 b9bd 7acb ffbe 87f6 023d
00000170: c0d4 99bc 11bd bbbd 87f3 82be 48b0 d0be
00000180: 6052 26be a6ab 25be 51f3 52be 1045 b7bd
00000190: d55e a63e 302d bb3c b8ec 12bf 5772 3abe
000001a0: a6ad dc3d 2076 45bd c986 233d 8d1d a9bd
000001b0: 2fd9 cf3c 488a 73bd 5c08 84bd 675c 273d
000001c0: 3c72 88bc 758e 0fbf ccd7 82be 9954 47bd
000001d0: 787d c73e 6b21 1d3e 7c29 03bd 332b 19be
000001e0: ee2a e3bd a2bf 363e 6a79 313e faec 253e
000001f0: f743 c0bd 4120 6b3d 019f 0f3e ba84 b03d
00000200: 570a ee3c 56f0 0fbe 2485 31be 3d35 dcbd
00000210: 59fb 673e 5f18 9d3e 1731 0dbe a878 e53d
00000220: aee4 4c3e e258 423d 5b1f d3bd 51b0 02be
00000230: c9b6 83be e805 89bc 49d7 c13e 8a77 0bbd
00000240: 778f 2c3e a3a2 62be 2e30 4cbd 844d 5a3e
00000250: 7b29 4d3e 6b4a 9fbd 146b 083e 2e99 aabe
00000260: 62d2 a73d d8b7 243d 6c51 4e3e e06f 083f
00000270: 5688 01be bb2a 70bd da66 a73d 3f13 85bc
00000280: a667 823d b619 45be 4578 203d 18fd 9dbc
00000290: 49a2 a1bd efcf 1bbe 5718 6a3d 4a7a 753d
000002a0: 11cb 26be 2b76 03be d293 13be abf2 033c
000002b0: d20d bf3c 8dae 223d aae6 183d 3381 0e3c
000002c0: 1b12 d53d 5f87 913d ebe9 19be 737e 323e
000002d0: 21ba b1bd 1294 093e 2273 833d 9006 97bd
000002e0: 2542 33be 6353 15be 87c0 14be a5bd 6abd
000002f0: bbb9 68be b831 b3bc 1e63 adbd fb6a 19bd
00000300: b093 993d e98c 3fbe e6c7 ccbd 5583 ed3d
00000310: 8044 06bc 3d12 68bd fe83 37bd a397 cb3b
00000320: a57b 2dbe cf6c df3c ea87 d0bd db0d dc3d
00000330: 4e4f 6bbd de18 e9bd 4540 bebd 320b 6abe
00000340: 9a89 c73d 7ae7 a4bc 75fc 453e 20b8 41bd
00000350: efe7 68bd 4fa6 4fbe 81a2 6cbd 9033 22bc
00000360: 7f05 4abe 62ff a8bd 2b5b 723d fb72 a4bc
00000370: 6f09 213e 8571 b6bd 4402 15be 4279 0bbe
00000380: 516c 193e a1d1 213e 91e3 b43d beaf 25be
00000390: dcf9 61bd 22f5 8b3c e84f f1bd e8a6 39bd
000003a0: 7da6 1d3d 61f5 133e d347 023e a63b 3cbf
000003b0: 08ba a03d 84f1 64bc afbc 9dbe be38 b93d
000003c0: 34cb 9b3e 780e 8fbc aa33 1ebe f292 873e
000003d0: 4646 e7bd cf54 3d3e 60b8 dcbe 0a2e bdbe
000003e0: a6af d93d 1a78 023e 5592 75be 5c5b adbd
000003f0: 6534 313c 230b ebbd f2be 2dbf e2d7 4dbf
-0.013812959 -0.33036277 -0.11824941 -0.1771119 -0.16901006 -0.15225987 0.13782269 0.06223861
0.1606972 0.13932449 0.21811685 -0.03061093 0.22489917 -0.22539468 0.0430952 -0.30652553
-0.17479204 0.2680934 0.21443376 0.049104605 0.016873477 -0.050237093 -0.11434572 0.099026695
0.24614382 -0.17553298 -0.19131452 0.3280919 0.09057742 0.08162028 0.17758103 0.13539253
0.16147217 0.055376217 -1.5215985 0.2531649 -0.2242995 0.25906047 -0.5590665 -1.0395628
0.055472776 -0.17464297 0.1156285 -0.13623458 -0.056548685 -0.028496986 -0.1340194 -0.22691338
-0.48796967 -0.16979475 -0.01745907 -0.42332843 0.07815571 0.19316734 -0.68466043 -0.19658366
0.12044359 -0.41613093 0.09265735 0.06229566 -0.32276207 0.15468264 0.0006704059 0.18216915
0.24737576 0.6629434 0.0262108 -0.79352033 0.40088093 -0.020816166 -0.47535467 -0.3330066
-0.1255997 -0.101494394 -0.29339036 -0.115007766 0.03491159 0.19100562 -0.092108965 -0.3503553
-1.8367381 -0.608152 -0.16591224 0.10294827 0.1187331 0.03333028 -0.0038982758 0.39213058
-0.4583059 -0.090654574 -0.49959928 0.031973388 -0.018778205 -0.09166921 -0.25576422 -0.40759492
-0.16242361 -0.1617876 -0.2060063 -0.089487195 0.32494226 0.022848696 -0.57392454 -0.1820768
0.10775308 -0.048208356 0.039923463 -0.082575895 0.025372116 -0.059458047 -0.06446907 0.040859606
-0.016656034 -0.5607675 -0.25555265 -0.048664663 0.38962913 0.15344779 -0.032021984 -0.14957885
-0.110921726 0.1784654 0.17331472 0.1620368 -0.09387963 0.057403807 0.14025499 0.086190656
0.029057665 -0.14056525 -0.17335945 -0.10752342 0.22654475 0.30682656 -0.13788258 0.11204654
0.2000911 0.047448047 -0.10308715 -0.12762572 -0.25725392 -0.01672645 0.37859562 -0.03404955
0.16851602 -0.22132353 -0.049850635 0.21318632 0.20035355 -0.07777866 0.13322097 -0.33319992
0.08194424 0.04021439 0.20148247 0.5329571 -0.12649664 -0.0586345 0.08173914 -0.016244529
0.063674256 -0.19248089 0.039177198 -0.019285724 -0.078922816 -0.15216039 0.05715212 0.059931077
-0.16288401 -0.12838046 -0.14411858 0.008053462 0.02332202 0.039717246 0.037329353 0.008697796
0.10403844 0.07105898 -0.15030639 0.17431049 -0.086780794 0.1343539 0.06418444 -0.073742986
-0.17505701 -0.14582591 -0.14526568 -0.057309765 -0.227271 -0.021874294 -0.08466171 -0.03745554
0.07498872 -0.18706097 -0.09999065 0.11597315 -0.008195043 -0.05665802 -0.044803612 0.006213145
-0.16941698 0.027273564 -0.101821736 0.1074483 -0.057448678 -0.11381696 -0.09289602 -0.22855833
0.09743042 -0.020129908 0.19334586 -0.047294736 -0.056861814 -0.20278285 -0.057772163 -0.009899989
-0.19728659 -0.082518354 0.059168976 -0.020074358 0.15726255 -0.08908371 -0.14551646 -0.13620475
0.14982726 0.15802623 0.08832467 -0.16180322 -0.055169925 0.017084662 -0.11782819 -0.04532519
0.038488854 0.14449073 0.12722711 -0.73528516 0.07847983 -0.013973597 -0.30808017 0.09044026
0.3042847 -0.017462954 -0.15449396 0.26479298 -0.112927005 0.18489383 -0.43109417 -0.36949188
0.106292054 0.12741128 -0.23981602 -0.08464691 0.0108157145 -0.114767335 -0.67869484 -0.80407536

fc2.bias f4 [27]
00000000: fd37 0e3e 24ca 853e 9891 d93d fd1d d93d
00000010: 92e9 5c3e 4ff2 dfbd c188 13be edfe 4f3c
00000020: a668 17be b6dc c33d 4f1a 4bbe a425 f23d
00000030: 0b4b 33be e98f 5d3e 5bdc 8cbd a202 43bc
00000040: 5333 cbbd 8f42 47be fba3 5cbd c101 40bd
00000050: 6abf 9d3d 3e57 013d 6453 f43d 06dc 84bd
00000060: 6e8c 213d 04c8 893d eb93 383d
0.13888545 0.26130784 0.10623473 0.10601423 0.21573475 -0.109348886 -0.14407636 0.012695056
-0.14786014 0.09563582 -0.19834255 0.11823586 -0.17509095 0.21636929 -0.06877967 -0.011902483
-0.09921899 -0.19458984 -0.05386732 -0.046876673 0.07702525 0.03157734 0.11929968 -0.06487279
0.039440565 0.06727603 0.04506294

fc3.weight f4 [28, 27]
00000000: edee fcbd 6280 b93d 910b d7be 2a9f cd3e
00000010: a797 9fbe ad54 d6bd 5648 d13a 8144 e9bd
00000020: 3e4f 193e 679d 3abe acc7 21be 4f64 9c3d
00000030: 141e 20be 5b05 6a3c 355d c4bd 2a77 63bc
00000040: 1835 3dbc 3394 1dbf 5e6a 313e 9fb9 813d
00000050: 0a4b 04bf 34f6 d43e 044e 733d 1776 483e
00000060: 71c8 a8bd 9041 2f3d 929b 95be ed40 443e
00000070: 8ef3 b0bd fae6 3bbe 403e b5bd a1a8 f9bd
00000080: a12d 14bd a168 1e3e b04c 0bbe d01e 04bd
00000090: b0f5 1abe 3a87 46be 9e87 f53c 107e 873c
000000a0: c7cc d5bd 56db a03d e77f 61be 2589 2a3e
000000b0: 4674 9f3d 38a6 f83c 7e87 fa3d 2413 47be
000000c0: 0ae8 c63d de51 05bd c087 1ebc 7e91 2dbe
000000d0: e695 133d f0d9 91bc a3ce 1bbe c979 23bf
000000e0: 3a04 6ebf f5a7 83be d478 4c3e 11fd cebd
000000f0: dbc5 9b3d d872 19be 10f3 1a3e 29c9 8c3d
00000100: e5b4 c9bd 3e93 45bf de31 a33d 45a6 623e
00000110: 4e50 923d 22c9 d2bd 0a46 b63d e293 b5be
00000120: a5ef 60be a518 9bbf 1c1f 6ebe ba47 2cbf
00000130: c08a 623e cef8 00bf 392b 44be 92b9 f63d
00000140: 39ba 8f3e 5211 1e3e 2513 85be 32c1 8a3d
00000150: de9f 96be 8d24 f63d e87e df3d aa63 5eba
00000160: bb3a 4bbe 8b87 2b3c 2c68 8b3d 360c 0c3d
00000170: 30f2 183e c997 98bd 0a1b 633e 6587 213e
00000180: edda 7b3c e6fb 13be 7f86 0f3e 3309 dfbd
00000190: 6767 2d3e c21f cd3d e622 26bf 039e 23bf
000001a0: f34b f0be 883a 8e3d 4cef aa3d 6254 953e
000001b0: f65a 0dbc 867a 983e 739c 463f 82df 6f3d
000001c0: 3f15 a43c 2fb8 323e 7149 9ebd 927f 893d
000001d0: bfcd 443c 6cbe a53d 31d2 893d 53e2 17be
000001e0: d814 30bd 430b 34be 3d00 34be eebe 8dbd
000001f0: 0b3d 2e3e b9e4 3abe 09f1 1d3d 773a 173c
00000200: 577f acbe 967a a4bf 0707 3ebe e10c ba3e
00000210: 142e d33d 888f 40bf 8949 a7be 2c80 81bd
00000220: 6abd e8bd 1cae 74be fbaa 513d a08a 623e
00000230: a368 33be 840e d73d 0897 193e 8ae4 403e
00000240: 57ba 88bf b629 bbbe 6ad1 0f3d b1de a5bd
00000250: b989 34bd ca75 663e 22b9 263e 0ee9 c8bd
00000260: ef8f 9abd c078 d2bb 1fda 743d 4c87 8abd
00000270: 1edb 353e 4986 c33d 26cd a73e 0cd3 d6bd
00000280: 2fce c63d 3bd8 64be b3a9 b6bd e1a6 76bd
00000290: 59ef babd 77f4 323e fa3e af3d da65 2abe
000002a0: 137f abbc a465 bcbd ee8c 1abe 38ec 083d
000002b0: 2025 6bbd 76c3 d83d 16f8 c7bd 912e 4dbe
000002c0: 4484 f0bd 3a32 583d 4f99 a6bd 6fb0 30be
000002d0: 88cd 873c 5a58 d33d ef0b c3bd 7244 d53d
000002e0: 48e7 9bbe fb70 1c3e 67ad 333e 6ec7 48bd
000002f0: 327b 7ebd 2e42 c53d 503b 06bc b22d a03d
00000300: 8b20 37be 3843 9cbd 2023 123c b3a3 d6bd
00000310: 889b 0bbe 249d f2bd 40f4 663d 84e9 debd
00000320: 98d6 05be 0077 5bbc cf7c 2f3e bc5b 5c3d
00000330: c330 fabd eac1 ddbd 7690 c43d 2d1e 203e
00000340: 0040 a839 7dfc fdbd ae5e de3d bf1c 0dbe
00000350: 1c86 7b3d fbe1 0f3e 01b6 17be da1a af3d
00000360: c889 d23b b9e2 5b3e af37 3ebe dc21 4c3f
00000370: 905e 82bd b228 9abd 9c61 f93c 4bd6 053b
00000380: 6510 e8bc 5e4e fcbf 9536 52bf 217c 2fbe
00000390: 8895 5ebd 84a4 b33d fe70 bfbd 9e61 47bc
000003a0: 089c d63d 12e7 01bf 4bd9 51bd e1ae a43e
000003b0: d308 163e 6b30 de3e 75ef 453d 0da3 8b3e
000003c0: 59ca 723d 5a9f 2dbe c1c6 21be 50b6 62be
000003d0: 2e64 1bbe ac08 023d ebcf 173e 3366 39be
000003e0: 4ae8 87be a4dd f83c 593b 42bd 5d6c 163e
000003f0: 7105 7dbe 3336 c9be 68fb 4b3e 3a72 44be
-0.12350259 0.0905769 -0.42001012 0.40160495 -0.3117039 -0.104653694 0.0015966992 -0.11390019
0.14971635 -0.18224107 -0.15798825 0.0763632 -0.15636474 0.014283503 -0.0958809 -0.013883391
-0.011548303 -0.6155426 0.17325732 0.063342325 -0.51677 0.41594088 0.059400573 0.19576298
-0.08241356 0.042787135 -0.29220253 0.19165392 -0.08640204 -0.1834983 -0.08849764 -0.121903665
-0.036176328 0.154696 -0.13603473 -0.032255948 -0.15132785 -0.19387522 0.029971894 0.016539603
-0.10439449 0.07854335 -0.22021447 0.16653879 0.07785849 0.030352697 0.12232874 -0.19440895
0.09712227 -0.032548778 -0.00967592 -0.16950032 0.036031626 -0.017804116 -0.15215544 -0.63857704
-0.929752 -0.2571408 0.19967967 -0.10106862 0.07606097 -0.14985216 0.15131783 0.06874306
-0.09848956 -0.771778 0.07968496 0.2213374 0.07144223 -0.10292269 0.08900078 -0.35464388
-0.21966417 -1.2116896 -0.23254055 -0.67296946 0.22123241 -0.50379646 -0.19157113 0.120471135
0.28071764 0.15436295 -0.2599117 0.0677513 -0.29418844 0.1201869 0.10912877 -0.0008483479
-0.19846623 0.010469328 0.068069786 0.034191333 0.14936137 -0.07450826 0.22178283 0.15774305
0.01537202 -0.1445156 0.1401615 -0.108904265 0.16933976 0.10015823 -0.64897 -0.6391298
-0.46932945 0.06944758 0.083464235 0.2916594 -0.008627644 0.29780978 0.7758247 0.058562763
0.020029662 0.17453073 -0.077288516 0.06713785 0.012011944 0.08092961 0.06729544 -0.1483243
-0.04298863 -0.17582421 -0.17578216 -0.069211826 0.17015474 -0.18251313 0.038559947 0.009230248
-0.33690903 -1.284991 -0.18557368 0.3633795 0.10311523 -0.7521901 -0.3267329 -0.06323275
-0.11364253 -0.23894542 0.05118845 0.22123194 -0.17520384 0.105008155 0.1499902 0.1883718
-1.0681866 -0.3655526 0.035111822 -0.08099116 -0.044076655 0.2250587 0.1628156 -0.09810077
-0.075469844 -0.006423086 0.05977833 -0.06764087 0.17759368 0.09547097 0.32773703 -0.10489473
0.09707295 -0.2234811 -0.08919086 -0.060217742 -0.09127683 0.17476068 0.08556934 -0.16640416
-0.020934617 -0.09199074 -0.15092823 0.0334284 -0.057408452 0.10584156 -0.097641155 -0.20037295
-0.11743978 0.052782275 -0.0813471 -0.17254804 0.016577497 0.10319586 -0.095237605 0.104134455
-0.3044989 0.15277474 0.17546616 -0.049018316 -0.062129207 0.096317634 -0.008192852 0.07821216
-0.17883508 -0.076300085 0.008919507 -0.10480442 -0.13633549 -0.118463784 0.05638528 -0.10884383
-0.13070142 -0.013395071 0.17137454 0.053798422 -0.12216332 -0.10828002 0.09597866 0.15636511
0.0003209114 -0.12401674 0.108579025 -0.13780497 0.061407194 0.14051048 -0.14815523 0.085500434
0.006425116 0.21473207 -0.18575929 0.79739165 -0.063656926 -0.07527293 0.030442052 0.0020421918
-0.02832813 -1.9711416 -0.82114536 -0.17137195 -0.054341823 0.08771613 -0.093477234 -0.01216927
0.10478979 -0.5074321 -0.051232617 0.32164672 0.14651804 0.43396315 0.048324067 0.27272835
0.059275005 -0.16955319 -0.15798475 -0.22139859 -0.15174934 0.03174655 0.14825408 -0.18105392
-0.2654441 0.030379124 -0.04741988 0.14689775 -0.24709107 -0.39299163 0.19920123 -0.19184199

fc3.bias f4 [28]
00000000: 3d93 ef3d 8f20 cdbd 1279 1b3e cef7 153e
00000010: c6a5 043e 1374 0f3e 6498 01be 32e7 39be
00000020: 963a 5a3e b552 883d 5950 e1bb a8b1 80bd
00000030: 37b9 4b3e eb92 713d 857a c9be 59fd 233e
00000040: f06b 283e f19a b73e 9d9c 0bbe fd69 37bd
00000050: f0a6 96bd 55bd e33d 1675 803e 9de1 103e
00000060: d9a6 3cbb 1890 c3be 9733 163e aef5 773e
0.11698005 -0.10015976 0.15182903 0.14645311 0.12953863 0.14009123 -0.12655789 -0.181546
0.21311411 0.066564 -0.0068760333 -0.06283885 0.19894873 0.058978003 -0.39351287 0.16014613
0.16447425 0.35860398 -0.13633962 -0.044778813 -0.073560596 0.111200966 0.2508933 0.14148565
-0.0028785972 -0.38195872 0.14668117 0.24214813

out.weight f4 [1, 28]
00000000: d3ec 993d 22c6 2a3c f73a aabe b9b1 70be
00000010: 0215 0abf 20fc 753e 94b6 743d 0693 1dbe
00000020: 605d 893e 9f60 9bbe 8018 06bd e531 57be
00000030: 7654 9e3e ecb5 063f c6d2 8b3d 4c9a 0e3d
00000040: fdbb c73e 01a4 183e 5599 0dbe 4a46 e63d
00000050: 4c6b 9a3d f332 683e 9083 093e 9cd9 3d3e
00000060: e3ea 61be 5d7f 013e 0445 3a3e 8aa0 113f
0.07515874 0.010423215 -0.33248112 -0.23505296 -0.53938305 0.2402196 0.059744433 -0.15388116
0.26829052 -0.30347154 -0.03273821 -0.21015127 0.30923814 0.5262134 0.06827311 0.034815118
0.3901061 0.14906313 -0.13828023 0.11243875 0.075399965 0.22675686 0.13429093 0.18540043
-0.22062258 0.12646241 0.1819039 0.5688559
